backend/models/poker_ppo_agent_5.pth (torch, 31852 bytes, 8 tensors)

fc.0.weight f4 [64, 34]
000000 5b ee ba 3c 2e ba 86 3d 74 a3 05 3e 8f d4 e4 bd
       0.022818735 0.0657848 0.13050634 -0.11173355
000010 7e b8 02 be 74 53 ce bd 95 92 00 3e 50 8d 1c be
       -0.1276569 -0.10074511 0.12555917 -0.15288281
000020 01 05 d4 3d 15 a5 b2 bc 13 96 a3 3d de ee ea 3d
       0.10352517 -0.021807233 0.07987609 0.114713416
000030 62 64 8a 3d 60 21 e7 bb 78 18 81 bc a7 08 01 3d
       0.06757428 -0.007053539 -0.015758738 0.031502392
000040 09 a9 28 3e 36 03 16 be 8f b5 93 bd 60 4f 94 3d
       0.16470732 -0.14649662 -0.07212364 0.07241702
000050 c8 fd 05 be 6c 3c 1f bd ed d7 1a be 6a 47 d1 3d
       -0.13085091 -0.038875982 -0.15121432 0.10218699
000060 c0 79 83 bb c6 08 30 3d dc 3e ea bd d6 96 d3 3d
       -0.0040123165 0.042977117 -0.11437771 0.10331504
000070 01 5a 0c be 5e 13 1d be 08 84 a9 bd d5 dc 58 3d
       -0.13706209 -0.15339419 -0.08277136 0.052944977
000080 c0 87 22 bd 19 d3 ca 3d 08 7c e1 bc 25 10 02 3e
       -0.039680243 0.09903545 -0.027524963 0.12701471
000090 a0 42 f7 bb 50 95 59 bc 84 e6 8c bd d3 aa f5 bd
       -0.007545784 -0.013280228 -0.06879905 -0.11995473
0000a0 c0 dc c6 bc ba 8b cb 3d a5 18 06 3e 7c 00 e0 bd
       -0.024275184 0.0993876 0.13095339 -0.109375924
0000b0 91 3d 2e 3e a7 7a f0 bd 90 47 62 3c 28 96 9d bd
       0.17015673 -0.11742144 0.013811007 -0.07694656
0000c0 00 68 cb bb 08 26 84 3c 02 d1 dc 3d e0 41 99 3b
       -0.006207466 0.016131416 0.107820526 0.0046770424
0000d0 c9 30 28 3e 7c cd 32 bd 2c b0 22 bd 79 21 23 3e
       0.1642486 -0.043652996 -0.03971879 0.15930738
0000e0 e8 85 4f 3d 5f 85 0f 3e 35 e2 00 3e 38 ac db bc
       0.050664812 0.14015721 0.12586291 -0.026815519
0000f0 80 08 cf ba e5 e0 18 3e d8 ce fb bc 8c e1 60 3d
       -0.001579538 0.1492954 -0.03073828 0.0549026
000100 99 e9 d0 bd ee 78 2d be f4 76 10 be 63 d8 01 3e
       -0.10200805 -0.16940662 -0.14107877 0.12680201
000110 84 dc 23 be e1 86 2c 3e aa ab d5 bd 30 e2 29 be
       -0.16002089 0.16848327 -0.10433133 -0.1659019
000120 54 ba a0 3d f4 5b 1b bd fc 92 45 bd 11 05 af bd
       0.07848039 -0.03792949 -0.04823588 -0.08545888
000130 ca e8 9d 3d d0 a3 c8 bc 4e 7c ba 3d 88 29 29 bd
       0.077104166 -0.024492174 0.091057405 -0.041299373
000140 ea 49 d8 bd 5e 89 f8 3d f0 af 35 bd c0 f6 b9 bc
       -0.10560973 0.12135576 -0.04435724 -0.022700667
000150 61 4c 14 be 54 a4 17 be a0 b5 fa bb 58 23 93 3c
       -0.14482261 -0.1480878 -0.007651046 0.01796119
000160 c0 93 7e bb c8 88 c0 bc e4 68 48 bd 98 9f 05 bd
       -0.003884539 -0.023502722 -0.048928156 -0.032622904
000170 7a 42 56 bd 70 95 57 3c 36 40 74 bd 58 69 9f bc
       -0.05230949 0.013158187 -0.05963155 -0.019459412
000180 ce 19 a9 3d 60 5b 9e bb b2 16 f9 3d 62 25 c1 3d
       0.08256875 -0.00483267 0.12162532 0.09430958
000190 78 2a 09 be f3 9b 02 3e e2 e7 d2 3d 37 b5 0e 3e
       -0.13395107 0.12754802 0.102981344 0.13936315
0001a0 28 07 24 be 1a 5d 98 bd 32 ac c8 bd 5e 12 95 3d
       -0.16018355 -0.07439633 -0.09798469 0.07278894
0001b0 b8 f9 03 3d 5a 04 e3 3d fe 47 f9 3d 43 57 a7 bd
       0.032220572 0.11084814 0.121719345 -0.08170941
0001c0 1a f7 86 bd 80 c4 05 bd 40 cb cb bc 8a 73 13 be
       -0.065901 -0.0326581 -0.02487719 -0.14399543
0001d0 44 ee ba bd bf 63 22 3e 44 1f 1d be 3c 7e 54 bd
       -0.09127477 0.15858363 -0.15343958 -0.0518782
0001e0 40 9b bb bc d6 a8 0f be 5c a0 4f bd 20 4a 0c 3c
       -0.022901177 -0.1402925 -0.05069004 0.008562595
0001f0 b7 23 13 3e 7e bb be 3d 76 07 a4 bd 38 a1 af 3c
       0.14369093 0.09313105 -0.080092356 0.02143918
000200 5a d9 e5 3d 64 20 d6 bd 00 13 21 3a 80 dd cc 3c
       0.11223097 -0.10455397 0.0006144494 0.025007963
000210 48 b6 42 3d 82 81 2c be fa f5 87 3d d8 1f 58 bd
       0.04753712 -0.16846278 0.06638713 -0.052764744
000220 12 f4 de 3d 64 25 32 bd 92 90 07 be bd 72 d7 bd
       0.108863965 -0.04349269 -0.13238743 -0.105199315
000230 49 35 88 bd 8e 17 e6 3d 03 04 9e bd b2 cb 2e be
       -0.06650788 0.112349615 -0.07715609 -0.17069891
000240 54 00 ea bd 2f c9 f6 bd 13 4a 2d 3e 0a 75 a4 3d
       -0.11425844 -0.120500915 0.16922788 0.08030136
000250 24 3c e8 bd 7f cb 1a 3e 3e 76 09 be 20 e1 6b bd
       -0.11339596 0.1511669 -0.13424012 -0.057587743
000260 10 5b 2c bc 61 72 26 3e 6f 80 1d 3e 1b 7f 07 3e
       -0.010519758 0.1625457 0.15381025 0.1323208
000270 a4 b5 3b bd 4a e4 f3 3d 5b 31 1d 3e e8 00 84 bc
       -0.045827523 0.11908777 0.15350859 -0.016113713
000280 14 c8 28 be c2 4a 10 be 1f 53 26 be 10 75 9e bd
       -0.16482574 -0.14091018 -0.16242646 -0.07737172
000290 ee d2 14 be 43 bb 0f 3e e0 7d f0 3c 0d 64 a2 bd
       -0.14533588 0.14036278 0.029356897 -0.079292394
0002a0 46 1a 8a 3d 08 e0 4a bd 33 af ee 3c d0 1b 53 bd
       0.067432925 -0.04953006 0.029136276 -0.051540196
0002b0 a3 69 e2 bc 3e 75 0b 3e 2c b6 b8 bd eb 63 eb bd
       -0.027638262 0.13618943 -0.090191215 -0.11493667
0002c0 5d 2e 06 be 1a af c0 3d 07 0f db bd db 47 c9 3d
       -0.13103624 0.09408398 -0.106962256 0.098281585
0002d0 a2 16 03 3e 10 ed bd 3c 50 6c 20 bd f6 2f 93 3d
       0.12801602 0.02318433 -0.039165795 0.07186882
0002e0 7b da 1d be 0a e3 3f 3d 5d 6a a7 3d 72 fd ed 3d
       -0.15415375 0.04684738 0.08174584 0.116206065
0002f0 1b 3e 27 3e 12 9d ff 3d 36 52 77 bd c3 df 16 3e
       0.16332285 0.12481131 -0.060381137 0.14733796
000300 c9 16 86 bc de e8 c7 3d 8b 7d 2e 3e 13 28 20 3e
       -0.016368287 0.09761213 0.17040078 0.15640287
000310 80 14 9b 3b 98 33 9d bc 21 c3 ee bc 94 b2 40 3d
       0.0047326684 -0.01918964 -0.02914578 0.047045305
000320 1f ae d9 3b 61 53 e0 bc 52 55 9d bd 58 1c 28 3d
       0.0066430713 -0.027383508 -0.07682289 0.041042656
000330 34 08 db bd 10 23 bd 3c 9c ff 52 3d 6d 52 e3 bc
       -0.10694924 0.023088008 0.0515133 -0.027749265
000340 81 e5 43 3c 2e 7a 2c be a1 58 80 bd a8 8e fa 3c
       0.011956573 -0.16843483 -0.062669046 0.030585602
000350 87 4d a7 bd fe c2 e1 bb 10 b6 42 3d 32 c0 a7 3d
       -0.08169084 -0.0068897 0.04753691 0.08190955
000360 6f 07 0f 3e 16 e8 bf 3d 7c 3b 07 3e f5 4d 0a 3e
       0.1396768 0.09370439 0.13206285 0.13506301
000370 b2 42 19 be 3e f2 c1 3d d4 ee 54 3d 29 82 e7 3d
       -0.14966848 0.09470032 0.051985577 0.11304123
000380 9e 91 08 be 10 96 6b 3c 64 c4 c7 bb 0e 26 18 be
       -0.13336799 0.014379039 -0.0060964096 -0.14858267
000390 6c 29 06 3d 77 c6 fe 3c 62 19 f3 3d 0c 50 04 be
       0.032754347 0.031100495 0.11870076 -0.1292116
0003a0 df 89 ad 3d 21 4e 1c be d1 5c 54 bc e1 be c2 bd
       0.084735624 -0.15264179 -0.012961582 -0.095090635
0003b0 68 e0 9b 3d ef fe 55 3c e0 21 7e 3c ed 94 04 3e
       0.076111615 0.013061269 0.015511006 0.12947436
0003c0 dc e7 25 bd 70 a9 ce 3c 03 3c 14 be 46 3c 86 3d
       -0.04050432 0.025227278 -0.14476018 0.06554465
0003d0 f2 74 4e bd 82 2f e9 3d d5 d1 14 be 77 2c 04 3e
       -0.050404496 0.113860145 -0.1453317 0.12907587
0003e0 ec c6 1a be f5 b1 0d 3e c8 d6 ba bd 69 86 0c be
       -0.15114945 0.13837416 -0.091229975 -0.13723148
0003f0 bc 24 db bd 26 de da 3d 28 ef 30 3d 1d c2 18 3e
       -0.10700366 0.10686903 0.043196827 0.14917798

fc.0.bias f4 [64]
000000 c7 f1 27 3e d8 2b dc bd fb e2 cb bd 02 c0 89 3d
       0.16400824 -0.1075055 -0.099554025 0.06726076
000010 74 bb 97 bd 0e 2c d5 bd f4 de 28 3d 83 1d ff bd
       -0.07408801 -0.104087934 0.04122825 -0.12456801
000020 57 e1 aa 3d 6c 03 94 bd d3 53 11 be 46 f0 c4 3d
       0.083437614 -0.07227215 -0.14192133 0.09616141
000030 95 1f 11 be 9a 10 ed bd 7e c5 0a be 3d 08 df 3d
       -0.14172204 -0.11575432 -0.135519 0.10890243
000040 0f 94 f0 3d 23 b4 5c bd 36 c6 21 be 5a f6 ac bd
       0.1174699 -0.05388273 -0.15798268 -0.08445425
000050 82 55 4b bd 68 25 5b bd a0 8f d2 3c f2 4a ca 3d
       -0.049642093 -0.05350247 0.025703251 0.09877576
000060 7a 2a b7 bd 47 39 c2 bd 6d 65 1b 3e 2a 6a 18 be
       -0.08943649 -0.09483581 0.1517541 -0.14884248
000070 34 0f 21 3d 80 72 08 be 86 5a 8d bc e5 0d b8 3d
       0.03932114 -0.13324928 -0.017255079 0.08987025
000080 6c 0f 1f bd 14 10 1d be 3a 2c aa 3d 80 c8 00 3b
       -0.038833067 -0.15338165 0.08309217 0.0019650757
000090 32 c0 e5 3d 60 04 b6 bc 3f 1e 26 3e dc 5b fe 3d
       0.11218299 -0.022218883 0.16222475 0.124198645
0000a0 80 13 8c 3c 42 8f 0d bd 90 c7 fe 3c e7 eb 1c be
       0.017099142 -0.03456045 0.031101018 -0.15324365
0000b0 4c 18 02 be 41 88 0b 3e 0b 90 0a 3e 00 52 fd 3b
       -0.12704581 0.13626195 0.1353151 0.0077307224
0000c0 ce b5 c7 bd b8 d9 2d be 32 27 7e bc 62 03 27 be
       -0.09751473 -0.16977584 -0.015512275 -0.16309884
0000d0 3e e7 cc bd 5c d6 45 bd 1f e9 9c bd a8 e9 db 3c
       -0.100050434 -0.048300132 -0.07661652 0.026844814
0000e0 64 a7 0d 3d a7 3a 21 3d 7b 79 cb bd 09 7d 2a 3e
       0.034583464 0.039362576 -0.0993528 0.1664926
0000f0 ae a7 8e bd 8c 69 32 3e 3c ae 8d bc 33 19 8d bc
       -0.06965576 0.17423075 -0.017294995 -0.01722393

fc.2.weight f4 [64, 64]
000000 fc b1 60 bd 0c 36 a7 3d 46 12 d4 3d a8 88 9e 3c
       -0.05485724 0.081646055 0.10355048 0.019352272
000010 f4 68 62 3d 54 6f e9 bd ce 17 c1 3d 04 3b f3 bd
       0.055275872 -0.11398187 0.094283685 -0.11876491
000020 18 cc e2 bc c4 6a d0 3d ee c2 ca 3d 84 f5 68 3d
       -0.02768521 0.10176614 0.09900461 0.056874767
000030 a8 07 a1 bd 68 de eb bc 06 43 8e bd 96 a8 f6 3d
       -0.078627884 -0.028792575 -0.069463775 0.12043874
000040 f4 25 e5 bd d6 43 c9 bd 22 d2 ea 3d bc 8b 78 3d
       -0.111888796 -0.09827392 0.11465861 0.060680136
000050 70 f9 c8 3c 20 74 cf bd 96 15 98 bd 9c 4e 9c 3d
       0.024533004 -0.10129571 -0.07425992 0.07632181
000060 00 43 b4 bb e0 54 1e bd e6 34 86 3d 56 d3 b5 bd
       -0.005501151 -0.03865516 0.06553058 -0.088782
000070 4c 7b e8 3d 98 d8 e9 bc 86 45 d4 3d 58 5e eb bd
       0.11351642 -0.028545663 0.10364823 -0.11492604
000080 28 0d 92 bc 60 78 ec 3d 0a 34 d7 bd e0 15 f7 bc
       -0.017828539 0.11546397 -0.105079725 -0.030161798
000090 fc 31 68 bd 8e 73 f1 bd 72 58 ef bd 88 9d ac 3d
       -0.056688294 -0.117896184 -0.116867915 0.08428484
0000a0 e0 52 16 3c 50 80 ec bc f8 b4 f0 bc 00 ad d8 3b
       0.009175032 -0.028869778 -0.029383168 0.00661242
0000b0 d8 e3 ca 3d c0 62 3f 3b 86 db e7 bd 24 22 65 bd
       0.09906739 0.0029203147 -0.11321168 -0.055940762
0000c0 50 2a ff 3c 0e 87 87 3d b4 8e 9a bd a0 e8 7d 3c
       0.031148106 0.066175565 -0.0754675 0.015497357
0000d0 0a b9 d4 3d 02 7e d1 3d 80 79 51 bd e0 ec 5b 3d
       0.10386856 0.10229112 -0.051141262 0.0536927
0000e0 c0 93 c9 bb 5e d1 ba 3d 1e aa c7 3d 94 27 e2 bd
       -0.0061516464 0.09121965 0.09749244 -0.11042705
0000f0 8e ca a9 bd 88 e8 a8 bd dc 74 50 bd e6 25 ed bd
       -0.08290587 -0.08247477 -0.050892696 -0.11579494
000100 c3 cd df 3d c0 97 4b 3d 86 95 cc bd 40 59 73 bc
       0.10927918 0.049705267 -0.09989457 -0.014852822
000110 1c a8 05 bd 6b b8 cd 3d 17 e1 ad 3d 22 84 ca bd
       -0.032631025 0.100449406 0.08490198 -0.098884836
000120 8a 41 9e bd 70 27 07 bc 04 0c 10 bd 07 2d ec 3d
       -0.07727344 -0.008249149 -0.03516771 0.11532026
000130 40 6f d9 3c 1c 51 b5 bd 00 bc 9f 3d a5 14 5a bd
       0.026542306 -0.08853361 0.0779953 -0.053242344
000140 3e b7 69 3d 37 88 a6 3d 88 b5 04 3d 08 6a be 3d
       0.05705952 0.0813145 0.032399684 0.092975676
000150 02 12 ae bd 08 a9 03 bd 20 42 d9 bd bc 15 5c 3d
       -0.084995285 -0.032143623 -0.106083155 0.053731665
000160 76 e8 ec 3d bc 46 90 bd 4d 54 f4 bd 08 a8 dd bc
       0.11567776 -0.070447415 -0.119301416 -0.027057663
000170 68 b7 1a 3d 3d d8 dd bd 34 ed 8e 3c da 79 b1 3d
       0.037772566 -0.1083226 0.017447092 0.086658195
000180 a8 fe f0 3d de b5 a1 bd ac 68 6a 3d 48 a1 8c 3c
       0.11767322 -0.078960165 0.05722873 0.017166749
000190 a6 dd 63 3d 80 aa 8a bd 39 0b f2 bc 15 e2 b5 bd
       0.055631302 -0.067708015 -0.029546367 -0.08881012
0001a0 c0 07 c4 3b 62 e7 f6 bd 8a 66 f9 bd d4 d2 66 3c
       0.005982369 -0.120558515 -0.12177761 0.014088351
0001b0 8d 04 89 3d f0 e9 22 bc 6f c0 ce bd e6 16 e6 3d
       0.06690321 -0.00994347 -0.100952975 0.11234836
0001c0 0d 9e f2 3d 46 66 fc 3d 74 d0 97 3d c0 d8 1c bc
       0.11846552 0.123241946 0.07412806 -0.009573162
0001d0 80 37 c9 bb 98 69 d3 3d 8a 0f c6 3d f0 3f 71 bd
       -0.0061406493 0.10322875 0.096709326 -0.058898866
0001e0 ec f2 93 bd 8f bb 06 bc a0 66 88 bb be f7 48 3d
       -0.07224068 -0.008223428 -0.0041626245 0.04906439
0001f0 9c ec 11 3d 8a 3d ca bc bd 5b e1 3d 20 5f b3 3c
       0.03562604 -0.024687547 0.11003826 0.021895945
000200 50 83 65 bd 4c b1 ff bd 30 14 6b 3c 9a 9c a8 3d
       -0.056033432 -0.124849886 0.014348075 0.082329944
000210 40 76 e0 3b 78 48 b7 3d e8 20 5d bd 90 8c c2 3c
       0.006850034 0.08949369 -0.05398646 0.023748666
000220 e8 95 a8 3d ca 59 ed bd e0 5f f0 bc f4 06 dc bd
       0.08231717 -0.115893915 -0.029342592 -0.10743514
000230 30 16 cb 3d c0 ca 5a 3d 94 11 74 bd c4 6e c6 3d
       0.09916341 0.053416014 -0.059587076 0.096890956
000240 f8 9f a9 bd f8 c3 ac bd 08 9f 60 bd 34 71 79 3d
       -0.08282465 -0.084358156 -0.054839164 0.060898975
000250 26 69 98 bd b0 22 34 bc 3c 07 f2 bd 40 40 9d bd
       -0.074419305 -0.010994598 -0.11817786 -0.0767827
000260 50 4a 38 bc 48 ea d3 3d 20 63 7b bd ee 3b a4 bd
       -0.011248186 0.1034742 -0.06137383 -0.08019243
000270 bc df ae bd 94 47 84 3d 3a 83 c0 bd 1a 12 8e 3d
       -0.08538768 0.06458965 -0.094000295 0.06937046
000280 0c be 70 bd 50 b2 f1 bd c8 fb 13 3d 7c fb 78 3d
       -0.058774993 -0.118015885 0.03612879 0.06078671
000290 74 e7 32 bd fc c0 68 bd 2e b2 fb 3d 88 3d 58 bd
       -0.043677762 -0.05682467 0.122898445 -0.052793056
0002a0 9e 6b b9 bd 00 b4 2b 3d f8 59 aa 3c d2 09 8d bd
       -0.090537295 0.04191971 0.020794854 -0.06886639
0002b0 68 30 59 bd 48 0a 50 bd c8 c0 37 3d 38 16 27 bd
       -0.05302468 -0.050791055 0.044861585 -0.040792674
0002c0 a0 c9 ea 3d 7e 59 de bd 76 9b d8 3d 9e ea c4 3d
       0.11464238 -0.10856913 0.10576527 0.09615062
0002d0 e0 33 a9 3b 56 36 8d bd 78 bb 43 3d d0 a7 ce 3c
       0.0051636547 -0.068951294 0.047786206 0.025226504
0002e0 bc 4d 52 bd e0 19 5c bd 90 76 34 bc 40 20 c0 3c
       -0.051343665 -0.053735614 -0.011014596 0.023452878
0002f0 24 0d 80 3d c0 00 83 3c 40 80 9e bd a0 6d bf 3b
       0.062525064 0.015991569 -0.077393055 0.0058419257
000300 dc c1 98 bd e8 c7 c0 bd d0 c4 45 bc b4 24 f6 bd
       -0.07458851 -0.09413129 -0.01207085 -0.12018719
000310 c8 97 a1 bc c8 24 ae bd e4 4a 7f 3d c8 32 36 3d
       -0.019725695 -0.08503109 0.06232728 0.044482023
000320 d4 da 4e bd 10 00 fe bd 68 37 39 bd a4 73 16 3d
       -0.05050166 -0.12402356 -0.045218855 0.036731377
000330 70 6a 16 3c 08 da b8 bc 00 aa 4d 3b c6 2b f2 3d
       0.00918065 -0.022564903 0.0031381845 0.11824755
000340 bc ad bd bd 04 56 29 3d b2 d8 ad 3d e2 b9 f5 bd
       -0.09261653 0.041341797 0.08488597 -0.11998345
000350 38 31 70 bd 60 f6 1a bc 0e 58 a9 3d 00 24 b4 3d
       -0.05864069 -0.009458154 0.08268748 0.08795929
000360 ee 1d f1 3d 10 b6 b8 3d 9c e4 3e bd 5c 76 ed bd
       0.11773287 0.09019101 -0.046604738 -0.11594841
000370 46 4f ec bd 78 76 fb bc d0 8d aa 3d 6c 38 6b bd
       -0.11538558 -0.030696139 0.0832783 -0.057426855
000380 c0 0d 33 3c 76 77 c0 3d e4 c7 b8 bd b0 ca d6 bd
       0.010928571 0.09397785 -0.09022501 -0.10487878
000390 8a 44 a8 3d 4a f1 cf bd ca d7 c3 bd 46 6b a6 bd
       0.08216198 -0.10153444 -0.09562643 -0.081259295
0003a0 b0 75 6c 3d d0 b2 91 bd 2a b4 e6 3d 92 ed a6 3d
       0.057729423 -0.07114184 0.11264832 0.08150782
0003b0 cc 5f ad 3d d0 4a 66 bd 68 f4 10 3d 2a 81 aa 3d
       0.084655374 -0.05622369 0.035389334 0.08325417
0003c0 94 62 a0 bd 02 b5 81 3d 4e 7b f3 3d c6 de c3 3d
       -0.07831302 0.063333526 0.11888753 0.09563975
0003d0 38 22 08 bd f4 77 20 3d d4 4b 61 bd 08 1f f0 3d
       -0.03323576 0.039176896 -0.055003956 0.11724669
0003e0 28 ad 5a bd 54 95 b8 bd a0 d4 7b 3c 64 9d 76 bd
       -0.05338779 -0.09012857 0.015370518 -0.060208693
0003f0 fa 04 84 bd 08 97 eb bc f0 d5 a7 3c 0c e9 56 bd
       -0.06446262 -0.02875854 0.020487756 -0.052468345

fc.2.bias f4 [64]
000000 80 a2 34 3c 62 5d 52 3d 96 cf fe bd a2 98 e9 bd
       0.011025071 0.051358588 -0.124419376 -0.114060655
000010 44 d8 19 3d 7f e3 d8 3d 0d f0 e0 bd 90 6d 2b bd
       0.037559763 0.105902664 -0.10983286 -0.041852534
000020 c9 4a aa bd 28 9c 5a 3d 80 4f 64 3b 2a 22 01 3e
       -0.083150454 0.05337158 0.0034837425 0.12610689
000030 f2 40 cd 3d 29 d2 b7 3c 3e 31 a8 bd 56 c4 41 bd
       0.10022153 0.02243908 -0.08212517 -0.04730638
000040 b0 0c 40 bd d8 c2 cc bc 74 6b 98 3d 3a 8d f0 bc
       -0.0468871 -0.024995252 0.0744237 -0.029364217
000050 b4 78 f6 bd 40 1a 8f bb ea 09 44 3b 3e ee 95 bd
       -0.12034741 -0.004367143 0.0029913136 -0.07320832
000060 40 43 b5 bd 84 33 0e 3d c3 d9 32 3d f0 c3 58 bd
       -0.088507175 0.034717098 0.043664705 -0.052921236
000070 20 53 d2 3c 98 03 a3 bc 78 ae db bc e3 b6 96 bd
       0.025674403 -0.019899175 -0.026816592 -0.073591016
000080 55 c1 d7 3d 54 95 c4 bd 8a bd 23 3d ac 81 4c bd
       0.10534922 -0.095987946 0.03997568 -0.049928352
000090 30 ed e4 3d d8 5e 33 3d 3c 9a 4c 3d 03 b4 89 bd
       0.111780524 0.043791622 0.049951777 -0.06723788
0000a0 50 49 65 bd d5 41 2c 3d 96 44 d9 bd 96 b5 d7 bd
       -0.05597812 0.04205497 -0.10608785 -0.10532682
0000b0 50 e2 1f bc 66 9f 71 3c 6c ed a8 3d 62 a8 50 bc
       -0.009758547 0.014747476 0.0824841 -0.012735458
0000c0 30 d5 db bd 29 ae db 3d 17 f9 cf 3d a0 a8 3a bc
       -0.10734022 0.10726578 0.10154932 -0.011392742
0000d0 b5 c3 fe bc e0 87 b1 3b 16 46 1a bd 30 77 5d 3d
       -0.03109918 0.005417809 -0.037664495 0.054068744
0000e0 e3 ca a7 bc 00 60 e0 bb f0 83 0a bc b3 70 ff 3c
       -0.020482486 -0.0068473816 -0.008454308 0.031181669
0000f0 fc 2f e8 3c 00 ae e6 3c a8 7a 3c 3d 56 29 d6 bd
       0.028343193 0.028159142 0.04601541 -0.10457103

policy.weight f4 [4, 64]
000000 f0 e3 4d 3c 87 76 ae bd e8 70 95 3d 4a 9a e0 3d
       0.012566552 -0.08518701 0.07296926 0.10966928
000010 e0 f4 e9 bb 1e 00 ca 3d 77 0b e4 bd e8 c0 54 bd
       -0.007139787 0.098633036 -0.11134999 -0.051941782
000020 96 e3 e8 3c d8 58 69 3d 54 c7 36 bd 2b 75 4f 3d
       0.028428834 0.056969494 -0.044623688 0.05064885
000030 90 32 19 3d ce dd ef 3a 18 4d 18 3d 60 f2 68 bd
       0.037401736 0.0018300356 0.037182897 -0.05687177
000040 30 1d 8d 3c 12 57 d0 3d b2 96 ef 3d 91 04 96 3d
       0.017225832 0.10172857 0.11698665 0.0732509
000050 b4 d6 f1 3d d6 a5 ad 3d 77 f4 e5 bd e0 1b a1 bd
       0.118085295 0.08478896 -0.112282686 -0.07866645
000060 d0 9a b5 3d d0 eb 6c bc 05 74 a6 bd 00 a5 8e 3b
       0.08867419 -0.014460519 -0.08127598 0.0043531656
000070 18 8c c2 bd 98 2b d5 bc b2 99 d1 3d be 1a e8 3d
       -0.09499377 -0.026021764 0.10234393 0.11333226
000080 23 41 4f 3d 00 ad bc 3a 67 ac cd 3c f4 cb 53 bd
       0.05059923 0.001439482 0.025106622 -0.051708177
000090 46 5c d5 bd d0 39 56 bc b0 6a 77 3d 14 79 44 3d
       -0.104179904 -0.013075307 0.06040448 0.04796703
0000a0 1c 90 db 3d a3 c5 f5 3c d8 97 b0 3c a4 5c b4 bd
       0.10720846 0.030001467 0.02155678 -0.08806732
0000b0 f2 11 98 3d 19 7b ea 3d b0 fd 0b bd 80 18 f1 3d
       0.07425298 0.1144926 -0.034177482 0.11772251
0000c0 33 58 84 3d 62 bf a3 bc cf e0 8c bc 7c 41 f9 3d
       0.06462135 -0.01998872 -0.01719704 0.12170693
0000d0 ea 31 09 3d b8 57 97 bc ce 77 72 bd be 57 68 3d
       0.033494867 -0.018474445 -0.059196286 0.056724302
0000e0 41 1a 86 bd a0 80 c1 bb 90 f9 3b bc f2 82 b2 bd
       -0.06547976 -0.005905226 -0.011473075 -0.08716382
0000f0 4b 8c ff 3d 90 a9 de 3c ab 0f 24 bd 20 24 83 bd
       0.12477931 0.027180463 -0.040054005 -0.06403375
000100 e0 60 1c bc 42 72 18 3d 30 8b b1 3c 00 55 4a bb
       -0.009544581 0.03721834 0.021672815 -0.0030873418
000110 10 b0 80 bc f0 45 f5 bd 0c 7f 0d 3d c6 60 ae 3d
       -0.015708953 -0.1197623 0.03454499 0.08514552
000120 cc f2 0b 3d 7c eb 32 bd 20 93 a2 bd 5a 4e 91 b9
       0.034167096 -0.043681607 -0.07938218 -0.00027714932
000130 7c a4 c7 bd 2a 18 c9 bd 10 bb f9 bc 71 8f d3 3a
       -0.0974817 -0.09819062 -0.030484706 0.0016140771
000140 28 41 40 bd ba 62 96 bd 8c da a1 3d 73 67 91 bd
       -0.046937138 -0.07343049 0.07903013 -0.070998095
000150 1e de 87 bd e4 5f 64 bd 92 1f 0c 3c e4 8e 01 bd
       -0.06634162 -0.05575551 0.008552449 -0.03163041
000160 d0 64 5f 3d b4 e3 49 bd 31 66 dc bd 48 3e 9d 3d
       0.0545395 -0.04928942 -0.10761679 0.07677895
000170 60 bc a0 bd c2 92 8e 3d 08 18 ef 3c 89 77 05 bd
       -0.0784843 0.069615856 0.029186264 -0.0325847
000180 70 a2 34 bd 08 d2 b2 bd ae 23 ac 3d 8c 0c 50 bd
       -0.044100225 -0.087314665 0.08405243 -0.050793216
000190 5d db 0f bd 38 59 21 3d 70 67 9b bc 92 e4 cc 3d
       -0.03512131 0.039391726 -0.018970221 0.10004534
0001a0 00 62 de bc 65 75 fc 3d f4 d0 73 3d 32 e3 85 3d
       -0.02714634 0.12327079 0.059525445 0.06537475
0001b0 32 00 e9 bd ab f2 c6 bd 70 43 87 bd b6 3e fd bb
       -0.113769904 -0.09714254 -0.066046596 -0.007728423
0001c0 b8 07 cd bd fb 62 be b9 bd f3 02 bc 80 6a df ba
       -0.10011238 -0.0003631337 -0.007992682 -0.0017045289
0001d0 36 f1 ef bb 60 5a 85 3d 75 13 b1 3c ab 06 9e bd
       -0.0073224558 0.06511378 0.021615723 -0.077161156
0001e0 9a 49 5c bc d8 65 37 3d d0 e8 75 3c 41 f8 c3 bd
       -0.013445282 0.04477486 0.01500912 -0.09568835
0001f0 40 40 b7 bc fc ea c1 3d fb 63 f3 3c 48 d0 fa bc
       -0.022369504 0.09468648 0.02971076 -0.030616894
000200 e0 4a 25 3d 63 69 db bd f4 dd 2e 3d c8 88 b9 3d
       0.04035461 -0.1071346 0.04269214 0.09059292
000210 34 a8 8b bd d1 30 c8 bd 28 78 2a bd d2 87 cd 3d
       -0.068191916 -0.09774936 -0.041618496 0.10035671
000220 87 40 bb b9 80 60 ed bb d4 50 09 3d 60 e2 f9 3d
       -0.00035715496 -0.0072441697 0.03352435 0.12201381
000230 40 97 36 3b 80 9a ff bd ac e7 4e bd 06 29 9f bd
       0.0027861148 -0.124806404 -0.05051391 -0.077714965
000240 8e 35 e2 bd e8 e8 d5 bd f8 29 29 3d 29 f1 e7 3b
       -0.11045371 -0.10444814 0.04129979 0.007078309
000250 54 db da 3d 48 51 3a 3d fc 0a b7 3d 0e 02 e8 bd
       0.10686365 0.045487672 0.08937642 -0.11328517
000260 92 5b d3 3d 08 df 57 3d 53 5b e7 3d 7a 6c a7 bd
       0.103202 0.052702934 0.112967156 -0.08174987
000270 06 cd af bd f4 ab af 3d c0 e7 67 bb 27 fb 23 3c
       -0.08584027 0.08577719 -0.0035385936 0.01000861
000280 e5 5f 07 bc 9c 45 7d 3d 61 c9 84 bd a8 0d 47 3d
       -0.008262609 0.061833963 -0.064837225 0.048597008
000290 07 42 8c bd 18 09 42 3d 3e 91 89 3d 13 8d 6d bb
       -0.06848531 0.047371954 0.06717156 -0.0036247417
0002a0 94 1e 76 bd 2f d1 87 bd 5a 5f 8c bd c2 ef c0 bd
       -0.060087755 -0.066316955 -0.06854124 -0.0942073
0002b0 ba 36 9d 3d 46 9f 2a bd 92 a4 c0 bd 0b 70 d5 3d
       0.07676454 -0.0416558 -0.09406389 0.10421761
0002c0 59 8f 85 3d 3b 31 be bd aa ab f6 3d d8 31 c1 bc
       0.06521482 -0.09286734 0.12044461 -0.023583338
0002d0 e4 f9 b8 3c 14 98 d0 bd c0 58 36 3d b3 b7 ab bd
       0.022580095 -0.101852566 0.044518232 -0.08384647
0002e0 f4 b0 0b 3d 3a b6 e3 3d c8 d7 cb 3d 5a 5a a8 bc
       0.034104303 0.11118741 0.099532664 -0.020550895
0002f0 26 0c 23 3d 00 cf 03 ba 14 ba db bd 16 c9 ef 3d
       0.039806508 -0.0005028099 -0.10728851 0.11708276
000300 12 a1 f0 bd 30 dc 2b 3c 9c 4f 80 3d 50 bc 52 bd
       -0.11749472 0.0104895085 0.06265184 -0.05144912
000310 1c 3b e7 3d 86 4d 95 bb b5 41 ba 3d c8 56 0a bd
       0.11290571 -0.0045563607 0.09094564 -0.033774167
000320 14 96 79 3d 54 2e f3 bd a8 6a a2 bd a5 82 4b bc
       0.06093414 -0.11874071 -0.07930499 -0.012421285
000330 9c 62 c1 3d 81 b7 be 3d c8 5e 8b bd ff 94 04 bd
       0.09442636 0.09312344 -0.068051875 -0.032368656
000340 8c 32 24 bd 00 9d 84 bd 5c 8e ae 3d 1f 28 3f 3d
       -0.040087268 -0.06475258 0.08523247 0.04666912
000350 98 7f 25 bd f6 88 e9 3d 8e 9c 77 3d 80 7e 5e 3d
       -0.040404886 0.11403076 0.060452037 0.05431986
000360 f8 a8 b4 3d 84 fc 99 3d 72 86 cf bd b8 44 52 3d
       0.08821291 0.07518867 -0.10133065 0.051335067
000370 90 37 df 3c 64 1a c8 bd b4 9b c0 3d 16 52 36 3d
       0.027248174 -0.097706586 0.09404698 0.044511877
000380 0c 40 c5 3d e0 aa 54 bd 2c d3 c9 bd 80 f7 54 3c
       0.096313566 -0.05192077 -0.09854731 0.012998462
000390 aa 9b 7d bd 3c 8c 8d bd 6c 7b a1 3d 42 0b 94 bd
       -0.06191603 -0.06911513 0.07884869 -0.0722871
0003a0 7a 5d ab bd 64 85 fb bc c8 e9 85 3c aa 14 b2 bd
       -0.083674386 -0.030703254 0.016346827 -0.086953476
0003b0 78 71 20 3d 20 6f 5a 3d f0 46 3a 3d c0 4c 90 bd
       0.039170712 0.053328633 0.045477808 -0.07045889
0003c0 80 af eb bd b5 df 2b 3d 5e a0 91 3d 86 b3 d5 bd
       -0.11508083 0.04196139 0.07110666 -0.10434632
0003d0 56 57 af 3d 72 b2 b5 bd 9a 24 a6 3d 08 1c be bd
       0.0856158 -0.08871926 0.0811245 -0.0928269
0003e0 41 c2 11 bd 88 85 e3 3d 8a 08 a2 bd 2d b6 35 bd
       -0.035585646 0.111094534 -0.07911785 -0.04436319
0003f0 07 5e 84 3d 1a ed f6 3d 89 c0 d5 bc a4 a0 f6 3d
       0.06463247 0.12056942 -0.026092784 0.120423585

policy.bias f4 [4]
000000 1a a3 e8 3d df 6e b3 bd f7 ab b5 bd f4 42 c3 bd
       0.11359234 -0.08761381 -0.0887069 -0.09534255

value.weight f4 [1, 64]
000000 b4 b4 bf 3d c5 70 0f bd 1c 7e b4 3d 30 f1 35 3c
       0.09360638 -0.035019655 0.08813116 0.011104867
000010 a0 29 51 3c 01 4d c7 bd 3e a3 a5 bc 5e 1e 95 bd
       0.012766272 -0.09731484 -0.020219442 -0.07281183
000020 bf 68 7c 3d a6 80 e9 3d b2 bc ea bd 83 eb 2e bd
       0.06162333 0.11401491 -0.11461772 -0.04270507
000030 a6 a6 89 bd a6 ae 8d bd 18 6e de bc 1a 17 c3 3d
       -0.06721239 -0.06918077 -0.027152106 0.09525891
000040 90 61 5f bc fe 5e f2 bd 40 df 15 bb 49 05 dd 3d
       -0.013634101 -0.118345246 -0.0022868663 0.10792024
000050 78 52 6f 3d 9c 51 4c bd 15 82 df bd b2 06 af bd
       0.058428258 -0.049882516 -0.10913483 -0.08546199
000060 76 9e f7 3d 0c cd 22 bd 7b fd 4c 3d 00 a8 75 b9
       0.12090771 -0.03974633 0.050046425 -0.00023427606
000070 4a 06 d5 3d 68 84 f0 3d 6c 13 b0 bd 86 a4 ed 3d
       0.1040159 0.117440045 -0.085974544 0.11603646
000080 6d 31 32 3c 28 e9 e8 bc d7 2e c2 3b b0 3c 3c bc
       0.010876042 -0.02843149 0.005925994 -0.011489078
000090 c5 a3 95 bc b0 f2 ce bd 12 1e fb bd 85 67 c2 bd
       -0.018266568 -0.10104883 -0.12261595 -0.09492401
0000a0 f8 7b a7 bc 7f 05 bb 3c e0 5b fb bb c4 3d 68 bd
       -0.020444855 0.02282977 -0.0076708645 -0.05669953
0000b0 80 91 83 3d 4a 41 57 3d 04 09 74 bd c1 69 db bd
       0.06424236 0.0525525 -0.05957891 -0.1071353
0000c0 c1 88 34 3d 21 cd f4 3d 34 05 e0 bc 40 d5 25 3c
       0.04407573 0.11953188 -0.027346231 0.010121644
0000d0 86 ed c5 bd 6c 8a 3f 3d df bf 99 3d d7 c8 0f 3c
       -0.096644446 0.04676287 0.075073 0.008775911
0000e0 9d 00 e7 3c 0e 8b ef bd e4 f6 48 bd 97 ed 6a 3d
       0.028198535 -0.116964445 -0.04906358 0.05735549
0000f0 e6 3e dd bb 90 f8 49 3d 1a 0f a8 3d 80 c8 b1 bb
       -0.006751883 0.049309313 0.082060054 -0.005425513

raise_mean.weight f4 [1, 64]
000000 e0 93 1d 3d 80 6a 83 bc 00 44 22 3a d0 87 59 3c
       0.038471103 -0.016041994 0.00061899424 0.013277009
000010 94 64 72 3d f4 ad 1a 3d 38 09 b3 bd ea 7a af bd
       0.05917795 0.03776355 -0.08741993 -0.08568366
000020 28 75 ca bd 58 41 d8 bc 42 cd 9c bd 04 ea 5d 3d
       -0.09885627 -0.026398346 -0.07656337 0.054178253
000030 f4 dd 3a 3d 82 a2 8d bd 94 ea 8d bd 76 f3 c2 3d
       0.045621827 -0.069157615 -0.06929508 0.09519093
000040 80 5a ed 3c 10 60 38 3d dc 43 88 bd c4 86 58 bd
       0.028973818 0.045013487 -0.06653568 -0.052862898
000050 72 b4 bd bd d0 df f8 bc 72 36 a3 bd 94 14 15 bd
       -0.09262933 -0.03038016 -0.07969369 -0.036396578
000060 02 f8 cc 3d f8 bc c7 bc 7c cb 6d 3d 16 05 8c bd
       0.10008241 -0.0243821 0.058055386 -0.068369076
000070 28 54 c5 bc 08 69 e5 bc 42 f2 df bd ba 8c f1 3d
       -0.02408798 -0.028004184 -0.10934879 0.117944196
000080 c2 cc 84 3d 10 91 8f 3d ec 1d a7 bd e4 3f 8d 3d
       0.06484367 0.0701009 -0.08160004 0.06896952
000090 80 bf 4d bc 30 f4 63 bc 88 18 11 3d b8 e2 39 bd
       -0.012557864 -0.013913199 0.035423785 -0.04538223
0000a0 20 85 3f bd 2c 3e 63 bd d8 80 63 bd 50 97 3b bd
       -0.046757817 -0.055479214 -0.055542797 -0.0457986
0000b0 8c 90 d9 3d fa 5c ca bd 2c f4 29 bd 00 10 d8 3b
       0.10623273 -0.09881015 -0.041492626 0.006593704
0000c0 98 df b7 3c 5c c8 51 3d a8 05 ee 3c 48 ed 7d 3d
       0.022445485 0.05121647 0.029055431 0.061993867
0000d0 c4 06 9f 3d f4 5d ea 3d 54 5c bf 3d 78 6b 36 3d
       0.07764962 0.114437014 0.09343782 0.044536084
0000e0 ec 86 6c bd 64 2e 9b 3d d0 2f 60 3d 44 01 a3 3d
       -0.05774586 0.07577208 0.054733098 0.07959226
0000f0 80 c7 8c ba 8a da d1 3d be 9b c6 3d a0 ea bc bc
       -0.0010740608 0.10246761 0.09697674 -0.023061097
