backend/models/poker_ppo_agent_1.pth (torch, 31852 bytes, 8 tensors)

fc.0.weight f4 [64, 34]
0.1086265 0.048185095 0.01454811 0.10486019 0.08695893 -0.16992752 0.1044094 0.017580539
0.079464994 -0.0061018653 0.09053304 -0.14309062 0.048162658 0.07624115 0.14361379 -0.105482526
-0.049583726 0.1044408 0.027039131 -0.17005679 -0.15305376 0.06746602 -0.0006970912 0.02789335
-0.05750075 -0.15736113 0.07724324 -0.07348842 -0.056072228 -0.03901644 -0.03515694 0.024218047
-0.14114404 0.055655077 -0.08859071 0.084554 -0.15023546 0.06651324 0.051780075 0.033815384
0.07130046 -0.008307368 0.15589242 0.14859457 -0.07476747 -0.004256308 -0.042309508 0.056528136
-0.10655673 0.14344613 0.06074314 -0.07952043 -0.012474835 0.122447714 0.0576732 -0.114911154
-0.036385283 0.05300051 0.0096541345 0.103855684 0.028937608 0.007989213 -0.024385765 0.06530286
0.019476026 -0.15277067 0.046581224 0.10620861 -0.0011913021 0.07863192 0.15401699 -0.13981828
0.13003738 -0.12631017 0.16956232 0.07784249 0.08802677 -0.070983104 -0.046621155 0.12951809
-0.1296722 0.009737909 0.14176552 -0.06993502 -0.09647457 -0.10722409 -0.13293774 0.15713654
-0.11993705 -0.049581744 0.019122198 -0.009646177 0.07942991 -0.10652289 -0.13713266 -0.15928599
0.16656075 -0.1224246 0.1418649 0.04373073 0.0020383548 0.14496563 -0.08161853 0.16435556
0.054919273 -0.03647814 0.012324787 -0.11417617 -0.060921002 0.09416051 -0.112306245 -0.12019145
0.16698419 -0.10853777 -0.064106405 0.10338883 -0.013717637 0.16604476 -0.042210855 -0.010946574
0.043308564 -0.13200006 0.15399341 0.15097739 0.05438049 -0.027656704 0.12829779 -0.111146696
-0.067763016 0.15833797 0.10762538 0.14213483 0.09590536 -0.12884904 0.089095384 0.057312116
-0.06667608 0.07648599 0.03650841 0.07350092 -0.14406946 -0.01814121 -0.16157308 -0.10123783
-0.031410225 -0.1093757 0.023012275 0.13834088 -0.02833705 0.10476969 0.08442162 0.011749858
-0.04618024 0.06588198 -0.11124896 -0.040825382 0.15745185 -0.07627006 -0.0077171624 -0.016008422
0.16310726 -0.093602695 -0.036087774 0.007252693 0.15898098 0.15688428 -0.08590379 -0.16184902
-0.1086266 -0.09200737 0.004175514 -0.07978399 -0.011229008 -0.12489289 0.04318814 -0.13381967
0.04197909 0.16660212 -0.033694923 0.05939056 0.020550221 -0.06497248 -0.03690283 0.068939105
0.086003914 0.12579547 -0.090154774 -0.030836597 0.068119496 0.053294405 0.07866438 -0.004759401
-0.12353706 -0.06486881 0.03306739 -0.042022943 0.15773593 -0.16737214 -0.12651053 -0.16723107
-0.085582525 -0.0031088293 -0.093382575 -0.09498517 0.025883183 -0.060099766 -0.04767125 -0.054392613
0.07927008 0.0909871 0.059251577 0.048177063 -0.0122786015 -0.030726776 -0.1708539 0.024445668
0.08977367 0.10452022 0.09518932 -0.15974501 0.08496992 -0.04723628 0.0661087 0.1436099
0.009352803 -0.14019291 -0.06284158 0.14667495 -0.023015574 0.10177277 0.07891102 -0.14449695
0.044247314 0.06508936 0.031372562 -0.09368091 -0.11073976 -0.17130232 0.024769962 -0.06582554
0.17155054 -0.13521114 -0.085364334 0.16661249 -0.011650558 0.03400436 0.14832628 0.05844496
0.011793876 0.060937725 -0.035639342 0.110240504 -0.024554115 0.07391672 0.10784033 0.030111738
00000000: 9277 de3d bc5d 453d 325b 6e3c f0c0 d63d
00000010: 8617 b23d 7b01 2ebe 98d4 d53d 1005 903c
00000020: 8bbe a23d 28f2 c7bb 6369 b93d 5986 12be
00000030: 3546 453d 5224 9c3d 7e0f 133e 3907 d8bd
00000040: 4e18 4bbd 0fe5 d53d 2b81 dd3c 5e23 2ebe
00000050: 20ba 1cbe a02b 8a3d 00bd 36ba 9880 e43c
00000060: e885 6bbd 4723 21be b431 9e3d 1981 96bd
00000070: feab 65bd b4cf 1fbd b900 10bd ed64 c63c
00000080: 1088 10be 94f6 633d 0c6f b5bd a62a ad3d
00000090: 53d7 19be 1838 883d 5817 543d 0082 0a3d
000000a0: fa05 923d a01b 08bc 43a2 1f3e 2d29 183e
000000b0: b01f 99bd 8078 8bbb bc4c 2dbd 0c8a 673d
000000c0: 6a3a dabd 8be3 123e cccd 783d 9bdb a2bd
000000d0: 4063 4cbc dec5 fa3d bc3a 6c3d 8a56 ebbd
000000e0: bc08 15bd 1017 593d 602c 1e3c 4ab2 d43d
000000f0: 900e ed3c 30e5 023c a8c4 c7bc 82bd 853d
00000100: 308c 9f3c ea6f 1cbe f4cb 3e3d e683 d93d
00000110: 7725 9cba c609 a13d a1b6 1d3e 862c 0fbe
00000120: 8528 053e 7457 01be bfa1 2d3e e26b 9f3d
00000130: 6147 b43d 975f 91bd d3f5 3ebd 64a0 043e
00000140: cac8 04be c08b 1f3c fb2a 113e 173a 8fbd
00000150: 7694 c5bd 4e98 dbbd d520 08be 67e8 203e
00000160: 8ea1 f5bd 3a16 4bbd 28a6 9c3c 000b 1ebc
00000170: 26ac a23d ac28 dabd 816c 0cbe de1b 23be
00000180: e78e 2a3e c0b9 fabd 0845 113e fe1e 333d
00000190: eb95 053b df71 143e 9e27 a7bd d34c 283e
000001a0: 08f3 603d 1a6a 15bd e7ed 493c 32d5 e9bd
000001b0: 4d88 79bd 3ad7 c03d d100 e6bd ef26 f6bd
000001c0: e7fd 2a3e 0d49 debd 384a 83bd 86bd d33d
000001d0: f1bf 60bc a307 2a3e 4ae5 2cbd 4259 33bc
000001e0: 5264 313d 062b 07be 73b0 1d3e d199 1a3e
000001f0: 14be 5e3d 5090 e2bc 7f60 033e e1a0 e3bd
00000200: 56c7 8abd 5923 223e b26a dc3d cb8b 113e
00000210: 086a c43d 01f1 03be a477 b63d 1cc0 6a3d
00000220: 788d 88bd b0a4 9c3d d889 153d a687 963d
00000230: f286 13be e09c 94bc 6a73 25be c855 cfbd
00000240: 02a8 00bd 5e00 e0bd 3d84 bc3c 3ba9 0d3e
00000250: 1a23 e8bc 7e91 d63d 3ee5 ac3d 7a82 403c
00000260: 7e27 3dbd 22ed 863d 7fd6 e3bd 8438 27bd
00000270: 0f3b 213e 7a33 9cbd 40e0 fcbb 1824 83bc
00000280: 9705 273e c5b2 bfbd c6d0 13bd 00a8 ed3b
00000290: e9cb 223e 46a6 203e 54ee afbd c0bb 25be
000002a0: 9f77 debd 5c6e bcbd c0d2 883b ca65 a3bd
000002b0: e0f9 37bc d8c7 ffbd 0ce6 303d 0608 09be
000002c0: 44f2 2b3d bf99 2a3e b003 0abd 8443 733d
000002d0: f058 a83c 4b10 85bd 6c27 17bd f22f 8d3d
000002e0: d222 b03d 87d0 003e 11a3 b8bd 089d fcbc
000002f0: 3c82 8b3d 3c4b 5a3d ca1a a13d c0f4 9bbb
00000300: 0001 fdbd f0d9 84bd ac71 073d 4020 2cbd
00000310: 8785 213e 9a63 2bbe fa8b 01be 9f3e 2bbe
00000320: e445 afbd 80bd 4bbb 5d3f bfbd 9687 c2bd
00000330: f808 d43c 2c2b 76bd ee42 43bd caca 5ebd
00000340: 5a58 a23d 7257 ba3d c8b1 723d 5055 453d
00000350: 302c 49bc b8b6 fbbc 53f4 2ebe 4842 c83c
00000360: 42db b73d b20e d63d 9ef2 c23d 3294 23be
00000370: b604 ae3d d47a 41bd 0064 873d 790e 133e
00000380: 803c 193c bb8e 0fbe 16b3 80bd f531 163e
00000390: 288b bcbc 3e6e d03d 1a9c a13d 02f7 13be
000003a0: ac3c 353d 924d 853d 8480 003d c7db bfbd
000003b0: 87cb e2bd e069 2fbe 60ea ca3c 8acf 86bd
000003c0: f2aa 2f3e ca74 0abe 7fd3 aebd 779c 2a3e
000003d0: fbe1 3ebc 2848 0b3d d8e2 173e fb63 6f3d
000003e0: 1a3b 413c d699 793d 8ffa 11bd c6c5 e13d
000003f0: b625 c9bc a661 973d 64db dc3d e4ac f63c

fc.0.bias f4 [64]
0.16852738 0.05457717 0.036565937 -0.08256335 0.008530921 0.030119345 0.13277124 -0.10886388
-0.052717846 -0.11430374 -0.15117308 0.09451525 -0.14586963 0.10446735 0.16984685 -0.054420236
-0.036541075 -0.0975066 0.12434493 0.008308485 -0.023612086 -0.12003949 -0.15412569 0.028897526
0.009966165 0.1131045 -0.119432986 0.1403431 -0.013838044 -0.13507073 0.07172894 -0.13803698
-0.07923131 -0.07391609 -0.041063413 -0.09185144 0.0926987 -0.0035781062 -0.11104794 0.057902455
0.04504618 0.11302926 0.040428907 -0.12121311 0.14440565 -0.04280521 -0.020466626 0.012493529
-0.08901158 0.07246617 -0.05337406 -0.051392525 0.14509879 0.12083242 0.06530931 0.02190885
-0.046281815 -0.011410572 -0.075515956 0.16532758 -0.024432957 0.012870908 -0.13309318 -0.06754754
00000000: 7192 2c3e 508c 5f3d 2ac6 153d f916 a9bd
00000010: 47c5 0b3c d8bc f63c 2ff5 073e 07f4 debd
00000020: abee 57bd 1418 eabd 1ecd 1abe 3691 c13d
00000030: d95e 15be faf2 d53d 55ec 2d3e c1e7 5ebd
00000040: 18ac 15bd 8ab1 c7bd 8ea8 fe3d 5020 083c
00000050: 226e c1bc 44d7 f5bd 20d3 1dbe 81ba ec3c
00000060: 2049 233c 55a3 e73d 4899 f4bd 1ab6 0f3e
00000070: f7b8 62bc fb4f 0abe 9fe6 923d 9159 0dbe
00000080: 0644 a2bd 5261 97bd 1c32 28bd 9c1c bcbd
00000090: d1d8 bd3d a97e 6abb 1a6d e3bd 202b 6d3d
000000a0: 5882 383d e27b e73d c898 253d 943e f8bd
000000b0: 13df 133e 8454 2fbd a0a9 a7bc a9b1 4c3c
000000c0: b44b b6bd 2569 943d c29e 5abd f880 52bd
000000d0: c794 143e fd76 f73d e3c0 853d 307a b33c
000000e0: 0092 3dbd 68f3 3abc 1ca8 9abd a24b 293e
000000f0: a027 c8bc 80e0 523c 9449 08be 5d56 8abd

fc.2.weight f4 [64, 64]
-0.018147 -0.10782491 0.096708484 -0.05373026 0.088917635 -0.07216135 0.09529899 0.08286455
0.07524504 -0.0702755 0.06294593 0.07921152 -0.10007643 -0.06777744 0.119108826 0.09789409
-0.0959447 -0.01693781 0.075213045 -0.011135533 -0.12281526 0.10514966 0.04700322 -0.058020446
-0.041286573 0.11506558 0.021573558 0.023449358 -0.036350876 0.0021212185 -0.08404722 0.041382745
-0.043633595 0.07668558 -0.11822717 0.03444265 0.007090446 -0.059721816 0.079967484 0.08459848
-0.08720855 -0.087172985 -0.006568087 -0.039680257 -0.05090073 0.06976916 -0.037095994 -0.06497333
0.09050547 -0.11174511 -0.09099166 0.03418657 0.071237996 0.05351604 -0.021477804 -0.045979828
0.113396674 0.10736132 0.09988326 -0.07502034 0.10951738 0.006119117 0.05009408 0.046645354
-0.026241386 0.047299862 0.057001762 -0.07073654 -0.08279655 0.038835734 0.026733786 0.10596481
0.12277546 0.02572228 0.07669546 -0.031452313 -0.09789839 0.049494445 -0.05608026 -0.0051841796
-0.059811514 -0.009561442 -0.09898315 -0.037663907 0.09071042 0.005607724 0.094064906 -0.019064004
-0.016074568 -0.0120242825 -0.006129563 -0.094176434 -0.024435446 0.065012306 -0.06020219 -0.08249651
-0.088228166 -0.011014044 -0.024751037 0.023350835 -0.10519688 -0.013260581 0.06634706 -0.012881473
0.09669644 -0.0707885 0.07961727 -0.109874934 0.006762797 -0.028660268 -0.022205323 0.023646224
0.004842399 0.0893176 -0.11464301 -0.12035844 0.026367502 0.037483998 0.016546298 -0.08900781
0.10606511 0.09852963 -0.113428324 0.12041761 -0.10718468 -0.046585858 0.048895672 -0.04960826
-0.045210123 -0.116606474 -0.017888978 -0.05080284 -0.10367082 -0.11354941 -0.04110089 0.07413705
0.0657485 0.002862379 0.0558106 -0.038156927 -0.035039768 -0.11852759 0.058773622 0.103900015
-0.03758721 0.012397423 -0.03923753 0.1137227 -0.04027155 0.112912506 0.07630487 -0.023703426
-0.09995486 -0.10311173 -0.110247985 -0.06319858 -0.10388057 -0.054875612 -0.031297833 0.0675405
-0.07988608 0.024786755 0.012850568 0.004277006 0.04415621 -0.11152133 0.08747925 -0.07555939
-0.05024019 0.011269391 0.056391537 -0.048314616 0.028862357 0.07040414 -0.016056016 0.10399842
0.052185312 -0.11022748 0.00017680228 -0.121083334 0.043047518 0.09494147 -0.08874287 0.020476818
0.0553879 -0.07439944 -0.01376836 0.05828239 0.055848226 0.07880777 -0.0919074 -0.052974463
0.061167862 0.042568922 0.09913588 0.10028988 0.11538619 0.11481519 0.058168128 0.026546309
-0.0057102307 0.09548342 0.03497137 0.012441963 0.08656033 0.07127848 -0.05505178 -0.004907625
-0.1057803 0.11087862 -0.07751751 0.09084539 0.042142462 0.067273125 0.07187039 -0.08464629
0.032271042 0.037824817 -0.008441299 -0.063946076 0.083401345 -0.08923511 0.0924068 0.123434864
0.08157705 0.044397444 -0.08263357 0.042251453 -4.7444217e-05 -0.121174626 0.054391667 0.09198657
-0.022196095 -0.055169374 -0.036798462 -0.050581604 0.07893135 -0.06800333 0.051593885 0.11770198
-0.11695095 0.09369053 -0.07270424 -0.0074968934 -0.0026787973 -0.040882017 0.01674331 0.06393744
0.12162158 -0.033615865 0.089784846 -0.06969687 0.033733085 -0.091830656 0.02326449 -0.065970145
00000000: 04a9 94bc 4ed3 dcbd 190f c63d 4314 5cbd
00000010: 731a b63d 54c9 93bd 1e2c c33d e4b4 a93d
00000020: 121a 9a3d 9aec 8fbd cce9 803d a639 a23d
00000030: dff4 ccbd e6ce 8abd 54ef f33d b27c c83d
00000040: a87e c4bd 2ac1 8abc 4c09 9a3d d071 36bc
00000050: 9186 fbbd b458 d73d 7386 403d d9a6 6dbd
00000060: 1c1c 29bd 81a7 eb3d 08bb b03c de18 c03c
00000070: a8e4 14bd 2404 0b3b f320 acbd f480 293d
00000080: 24b9 32bd 540d 9d3d 1621 f2bd bc13 0d3d
00000090: f956 e83b dd9e 74bd fec5 a33d f841 ad3d
000000a0: 659a b2bd c087 b2bd 1b39 d7bb c487 22bd
000000b0: 497d 50bd 22e3 8e3d f8f1 17bd bd10 85bd
000000c0: ef5a b93d 9fda e4bd d659 babd 3807 0c3d
000000d0: 3ae5 913d a333 5b3d 38f2 afbc 5855 3cbd
000000e0: 843c e83d 40e0 db3d 988f cc3d 44a4 99bd
000000f0: a64a e03d e082 c83b 732f 4d3d 330f 3f3d
00000100: 2df8 d6bc 80bd 413d ae7a 693d 52de 90bd
00000110: 3d91 a9bd 3812 1f3d d000 db3c 1404 d93d
00000120: b371 fb3d 88b7 d23c 8212 9d3d 24d4 00bd
00000130: f37e c8bd b0ba 4a3d 6ab4 65bd 0de0 a9bb
00000140: ebfc 74bd 98a7 1cbc aeb7 cabd 7845 1abd
00000150: 62c6 b93d 00c1 b73b 1aa5 c03d 1d2c 9cbc
00000160: d0ae 83bc 7f01 45bc 80da c8bb 93df c0bd
00000170: d82c c8bc 2c25 853d 9296 76bd eef3 a8bd
00000180: f8b0 b4bd 4074 34bc b0c2 cabc 404a bf3c
00000190: 7671 d7bd e842 59bc f8e0 873d d00c 53bc
000001a0: c808 c63d 90f9 90bd 610e a33d 1c06 e1bd
000001b0: 749a dd3b f0c8 eabc f0e7 b5bc bab5 c13c
000001c0: fdac 9e3b 25ec b63d f4c9 eabd 7c7e f6bd
000001d0: a900 d83c d288 193d 1a8c 873c ba49 b6bd
000001e0: aa38 d93d e7c9 c93d 1c4d e8bd 829d f63d
000001f0: a483 dbbd d0d0 3ebd d446 483d 0832 4bbd
00000200: 402e 39bd 60cf eebd e88b 92bc a416 50bd
00000210: 5e51 d4bd 988c e8bd 6859 28bd 2ad5 973d
00000220: 26a7 863d c096 3b3b a899 643d 704a 1cbd
00000230: dc85 0fbd 98be f2bd 9cbc 703d 88c9 d43d
00000240: 0cf5 19bd 901e 4b3c 88b7 20bd 72e7 e83d
00000250: c8f3 24bd ac3e e73d ba45 9c3d b02d c2bc
00000260: 22b5 ccbd 3e2c d3bd b2c9 e1bd 426e 81bd
00000270: 56bf d4bd 40c5 60bd 2832 00bd ac52 8a3d
00000280: 509b a3bd 980d cb3c 308b 523c 2026 8c3b
00000290: 24dd 343d 4c65 e4bd 5228 b33d e2be 9abd
000002a0: a8c8 4dbd 40a3 383c d0fa 663d 8ce5 45bd
000002b0: c070 ec3c 0c30 903d e887 83bc 20fd d43d
000002c0: 44c0 553d f2be e1bd 0064 3939 8afa f7bd
000002d0: 9852 303d ac70 c23d d2be b5bd 00bf a73c
000002e0: 6cde 623d bc5e 98bd b094 61bc 84b9 6e3d
000002f0: 1cc1 643d f865 a13d f239 bcbd c0fb 58bd
00000300: 278b 7a3d c05c 2e3d c107 cb3d c864 cd3d
00000310: 984f ec3d 3a24 eb3d b441 6e3d a577 d93c
00000320: e31c bbbb d08c c33d 243e 0f3d 60d9 4b3c
00000330: 8b46 b13d 74fa 913d fa7d 61bd 24d0 a0bb
00000340: 58a3 d8bd 5414 e33d 80c1 9ebd 260d ba3d
00000350: 939d 2c3d 7ec6 893d c830 933d 095b adbd
00000360: a42e 043d 32ee 1a3d 604d 0abc 29f6 82bd
00000370: 53ce aa3d e6c0 b6bd c73f bd3d 6bcb fc3d
00000380: de11 a73d 18da 353d ca3b a9bd dc0f 2d3d
00000390: d7fe 46b8 672a f8bd ccc9 5e3d 7463 bc3d
000003a0: 96d4 b5bc 48f9 61bd fcb9 16bd a82e 4fbd
000003b0: c2a6 a13d 5445 8bbd 1c54 533d bc0d f13d
000003c0: fb83 efbd d2e0 bf3d f6e5 94bd 80a8 f5bb
000003d0: c38e 2fbb e773 27bd 4429 893c a2f1 823d
000003e0: bc14 f93d cab0 09bd 1ee1 b73d 3cbd 8ebd
000003f0: b42b 0a3d b611 bcbd 2c95 be3c 5b1b 87bd

fc.2.bias f4 [64]
-0.06734631 -0.022651305 0.0031739324 0.06423531 0.07004165 -0.113439634 0.08130422 -0.01683563
-0.04966514 -0.10706523 0.106053784 -0.01992385 0.05056579 -0.092736855 0.07275352 0.045676544
-0.068676576 -0.006554678 0.05019094 0.06923862 -0.013562471 0.07301554 0.097802654 0.0101325335
-0.08759133 -0.048946217 0.07958315 -0.046211198 -0.027570352 0.0062657846 -0.11341703 -0.09144975
0.035264254 -0.0740958 -0.10242766 -0.10936896 -0.047194242 0.10935517 -0.0076399813 0.07253066
-0.11369845 -0.07648255 0.103357136 0.0073106736 -0.06201883 0.08292076 0.081106976 -0.05053614
0.020646363 0.10838371 0.050845325 -0.09212695 0.06846302 -0.015265346 0.071786866 -0.049352072
-0.0685583 -0.09027103 0.124698505 -0.10182085 -0.12375933 0.099930525 -0.05111478 -0.0054829973
00000000: ddec 89bd 3b8f b9bc c001 503b cd8d 833d
00000010: ff71 8f3d 0a53 e8bd d482 a63d e0ea 89bc
00000020: ad6d 4bbd 0445 dbbd ba32 d93d 5837 a3bc
00000030: 131e 4f3d d2ec bdbd ccff 943d 5417 3b3d
00000040: 4ea6 8cbd a0c8 d6bb 0495 4d3d facc 8d3d
00000050: 2035 5ebc 2c89 953d c24c c83d ed02 263c
00000060: 1563 b3bd d47b 48bd 7efc a23d f447 3dbd
00000070: 38db e1bc 3651 cd3b 3047 e8bd 024a bbbd
00000080: 4071 103d 8abf 97bd 98c5 d1bd d5fc dfbd
00000090: c04e 41bd 9af5 df3d cf58 fabb f48a 943d
000000a0: bcda e8bd e2a2 9cbd e8ac d33d 608e ef3b
000000b0: 7507 7ebd 5cd2 a93d 6a1b a63d fcfe 4ebd
000000c0: 9022 a93c 47f8 dd3d 3043 503d 0ead bcbd
000000d0: 5736 8c3d 801b 7abc fe04 933d 6625 4abd
000000e0: 4b68 8cbd 05e0 b8bd ee61 ff3d 7387 d0bd
000000f0: 8875 fdbd 60a8 cc3d bb5d 51bd b7aa b3bb

policy.weight f4 [4, 64]
0.017432353 -0.07602689 0.06621629 0.06984078 0.06383407 0.009477941 0.107394025 -0.043461427
0.00076478627 0.0989143 0.028301261 -0.00015167892 -0.12326177 -0.030366525 0.036555678 0.02701357
0.026063472 0.03718759 0.0040008873 0.045544103 0.068075955 -0.09041527 0.021187587 0.0062847855
-0.12578572 0.005629733 0.10168417 0.067296326 0.0245886 -0.000456867 -0.11511173 -0.082876876
0.03092587 0.0629663 0.03757167 0.0010377922 0.0036526471 0.08756521 -0.018952316 0.019046292
-0.11633979 0.068750784 0.05351515 -0.076909184 -0.061928995 0.02236572 0.1164287 -0.07636883
0.06572655 0.1018272 0.024792595 0.04458382 0.097298265 0.034992337 -0.11110071 0.03624868
0.061791684 -0.07343142 -0.11599165 0.0098723695 0.067624524 -0.00095551764 -0.12060415 0.035904225
-0.0003828804 0.07507587 -0.09632923 -0.039009675 0.029202027 -0.04679443 0.01779741 -0.0335346
-0.12031868 0.044966895 0.008500121 0.11812483 0.06850347 0.05261235 0.05596435 -0.039561898
-0.040838957 -0.06483357 0.07286967 0.049848884 -0.02327173 -0.008816645 -0.058105227 -0.084084086
-0.050236676 -0.118856475 -0.07091814 -0.024721125 0.073690996 -0.10391078 -0.013543526 -0.017841622
0.0808368 -0.07076962 -0.1201987 -0.033842295 -0.12350373 0.081814855 -0.029731177 -0.076922014
-0.039692 -0.03504248 -0.04041198 -0.123561785 0.014073797 0.0030803233 -0.06428183 -0.013718724
-0.099706545 0.062705144 0.0034880745 -0.017436601 -0.043660708 -0.035440788 -0.02154417 -0.10625049
0.0026238707 0.092699625 -0.04554279 -0.08516691 -0.098307475 0.017937962 0.04989696 0.08634217
0.10390558 0.055686414 -0.1031909 0.026705483 -0.04722404 0.04492131 0.06918721 -0.09008604
0.05641815 0.104739174 -0.021609705 0.051852092 0.10809397 0.069635734 -0.025470123 -0.06390533
0.013070226 0.013750285 -0.07023306 0.046464518 -0.06539713 -0.028455243 0.08346761 -0.035458125
-0.12130346 -0.06589836 0.032372177 -0.06826564 0.009800568 -0.118288085 0.011803867 -0.10147551
-0.044504195 0.044610217 -0.0896263 0.039528023 0.123498544 0.11540116 -0.019271124 -0.08890431
-0.11552858 0.113424525 -0.06317912 0.11580551 -0.0013919689 0.016804844 0.10362137 0.06586021
-0.089171365 -0.1221661 -0.044897627 0.049296223 -0.07344355 0.06740965 -0.023271801 -0.04719998
0.06620726 0.08288055 0.09809035 0.077643394 0.12101942 0.011598072 0.0108938515 0.023923934
0.030586045 0.016943345 0.06379837 0.055967603 -0.06737744 0.105092674 0.120557725 0.10574131
-0.031123731 -0.07214819 -0.09163769 -0.08759801 0.06433982 -0.047877014 0.051044345 -0.01818429
0.067760974 -0.015191972 0.10402021 -0.018293753 0.10652555 -0.06124492 -0.051908962 -0.0033139447
0.0066057453 0.021504745 0.08190134 0.04925042 0.10912551 -0.062256332 -0.11104785 0.05325742
-0.019653454 0.122021094 0.08312462 -0.03801965 0.02719985 -0.10148367 0.026822578 -0.005295515
-0.05954121 -0.03780496 0.1029896 0.10949817 0.046783175 -0.085642666 -0.023189431 -0.123005874
0.076717615 0.04834829 0.023906713 0.0075108497 -0.04177204 0.096010774 -0.004787068 -0.05740363
-0.033859175 -0.093637735 -0.0016117841 -0.09901103 -0.108369276 -0.12038383 0.11449373 -0.1263878
00000000: 4bce 8e3c fcb3 9bbd 689c 873d af08 8f3d
00000010: 70bb 823d 5e49 1b3c 66f1 db3d 9c04 32bd
00000020: f07b 483a 9593 ca3d 0cd8 e73c 000c 1fb9
00000030: ab70 fcbd 38c3 f8bc 68bb 153d 904b dd3c
00000040: 1083 d53c 0452 183d e019 833b 748c 3a3d
00000050: 686b 8b3d a42b b9bd 9791 ad3c 9af0 cd3b
00000060: f9cd 00be a079 b83b ca3f d03d a8d2 893d
00000070: 086e c93c a787 efb9 b3bf ebbd 5abb a9bd
00000080: 4058 fd3c 7af4 803d c0e4 193d 8706 883a
00000090: 4061 6f3b 6455 b33d e341 9bbc f806 9c3c
000000a0: 8e43 eebd 36cd 8c3d b432 5b3d 9082 9dbd
000000b0: 42a9 7dbd 5038 b73c 2c72 ee3d 4367 9cbd
000000c0: a49b 863d c78a d03d d719 cb3c 869d 363d
000000d0: 5044 c73d 2054 0f3d c588 e3bd 7f79 143d
000000e0: 4719 7d3d 3663 96bd 088d edbd b8bf 213c
000000f0: ba7e 8a3d b47b 7aba 4fff f6bd 4f10 133d
00000100: 56bd c8b9 61c1 993d 4248 c5bd 9cc8 1fbd
00000110: 1739 ef3c 84ab 3fbd e0cb 913c 945b 09bd
00000120: a469 f6bd 352f 383d 1744 0b3c 6eeb f13d
00000130: 8c4b 8c3d 0c80 573d e03a 653d a80b 22bd
00000140: c046 27bd 76c7 84bd b23c 953d 582e 4c3d
00000150: 5ba4 bebc b073 10bc bfff 6dbd 4734 acbd
00000160: f9c4 4dbd 066b f3bd 883d 91bd f583 cabc
00000170: 4eeb 963d 2dcf d4bd aae5 5dbc 9828 92bc
00000180: c48d a53d aaef 90bd bc2a f6bd 389e 0abd
00000190: 86ef fcbd 8c8e a73d cc8e f3bc 4a89 9dbd
000001a0: 1494 22bd b488 0fbd 0887 25bd f60d fdbd
000001b0: c895 663c 40df 493b 31a6 83bd 80c4 60bc
000001c0: f232 ccbd 8e6b 803d 2e98 643b 34d7 8ebc
000001d0: 92d5 32bd 5c2a 11bd 667d b0bc db99 d9bd
000001e0: 3ff5 2b3b 4dd9 bd3d 148b 3abd fd6b aebd
000001f0: 6e55 c9bd a2f2 923c c160 4c3d 2ad4 b03d
00000200: 73cc d43d 7017 643d c055 d3bd 75c5 da3c
00000210: ff6d 41bd 68ff 373d 06b2 8d3d 087f b8bd
00000220: b816 673d 7e81 d63d d606 b1bc dc62 543d
00000230: 5f60 dd3d 2e9d 8e3d b8a6 d0bc cce0 82bd
00000240: 8024 563c e048 613c 5ad6 8fbd 9451 3e3d
00000250: eeee 85bd f81a e9bc 11f1 aa3d 8a3c 11bd
00000260: f36d f8bd b8f5 86bd b098 043d dbce 8bbd
00000270: 9092 203c 0641 f2bd 0265 413c 64d2 cfbd
00000280: 084a 36bd 34b9 363d fe8d b7bd 23e8 213d
00000290: ceec fc3d 7257 ec3d 7ade 9dbc 7613 b6bd
000002a0: 409a ecbd 1e4b e83d 0e64 81bd 702b ed3d
000002b0: ba72 b6ba 50aa 893c 7137 d43d b8e1 863d
000002c0: 7a9f b6bd 3832 fabd 93e6 37bd d6ea 493d
000002d0: 9269 96bd 120e 8a3d 81a4 bebc c454 41bd
000002e0: ac97 873d 47bd a93d 98e3 c83d 8003 9f3d
000002f0: 08d9 f73d d705 3e3c 207c 323c 20fc c33c
00000300: 968f fa3c c5cc 8a3c b8a8 823d 493e 653d
00000310: 2ffd 89bd d43a d73d f8e6 f63d e68e d83d
00000320: 32f7 febc 6ec2 93bd 8bac bbbd 9666 b3bd
00000330: 98c4 833d b01a 44bd e013 513d 38f7 94bc
00000340: 44c6 8a3d c0e7 78bc 8c08 d53d c8dc 95bc
00000350: 112a da3d f4db 7abd 7e9e 54bd c42e 59bb
00000360: 0275 d83b b82a b03c e4bb a73d cfba 493d
00000370: 327d df3d 7f00 7fbd 0e6d e3bd 7424 5a3d
00000380: 4800 a1bc 32e6 f93d 3e3d aa3d 7eba 1bbd
00000390: 38d2 de3c acd6 cfbd 06bb db3c 0086 adbb
000003a0: 7ce1 73bd 60d9 1abd 36ec d23d 9440 e03d
000003b0: b79f 3f3d 6c65 afbd c3f7 bdbc 81ea fbbd
000003c0: 201e 9d3d db08 463d 03d8 c33c 931d f63b
000003d0: 2919 2bbd 4ca1 c43d d6dc 9cbb 1220 6bbd
000003e0: ebaf 0abd 24c5 bfbd 8042 d3ba 4bc6 cabd
000003f0: b6f0 ddbd cc8b f6bd b07b ea3d ce6b 01be

policy.bias f4 [4]
0.008828864 -0.0100523215 -0.049026873 -0.035179608
00000000: f1a6 103c 7eb2 24bc 67d0 48bd 7e18 10bd

value.weight f4 [1, 64]
0.11839225 0.092415296 0.04443945 0.09299403 -0.10708736 -0.03288805 -0.009648249 -0.011192188
0.07646449 -0.083231755 0.019859212 -0.038280427 0.082282655 -0.02387464 -0.12492511 0.075437605
-0.03558278 0.110267386 -0.11073236 0.002333939 -0.052371636 -0.0674451 0.055793025 0.00044660986
-0.096491404 0.053058907 -0.12371655 -0.019610789 -0.016055882 -0.03793273 0.076446414 0.11400783
-0.036683008 -0.027386934 -0.015408024 0.027029363 -0.00921607 0.031217963 0.076606266 -0.08696638
0.100119665 0.071306884 -0.11407697 0.11459868 0.11963081 -0.004307762 -0.04990728 0.0960292
0.06811842 -0.12417658 0.034770943 -0.07536243 -0.060642216 0.124562174 -0.0428289 0.088615805
-0.053353295 0.094884165 -0.002408117 0.057980176 0.06879057 0.0644956 -0.06890402 -0.09707978
00000000: a377 f23d 3b44 bd3d 2406 363d a773 be3d
00000010: 9e50 dbbd 9fb5 06bd b013 1ebc 705f 37bc
00000020: 6a99 9c3d 6975 aabd c9af a23c f0cb 1cbd
00000030: cf83 a83d c094 c3bc bcd8 ffbd 087f 9a3d
00000040: 40bf 11bd ded3 e13d a6c7 e2bd 00f5 183b
00000050: a483 56bd a820 8abd 3a87 643d f626 ea39
00000060: 499d c5bd 4c54 593d 1a5f fdbd cea6 a0bc
00000070: a087 83bc 5a5f 1bbd f08f 9c3d f07c e93d
00000080: ec40 16bd 905a e0bc f071 7cbc af6c dd3c
00000090: 00ff 16bc d0bc ff3c bfe3 9c3d 6e1b b2bd
000000a0: 8a0b cd3d 5809 923d 30a1 e9bd b6b2 ea3d
000000b0: 0001 f53d 2028 8dbb 936b 4cbd f5aa c43d
000000c0: ac81 8b3d 4a50 febd fa6b 0e3d 9e57 9abd
000000d0: f963 78bd 741a ff3d 5b6d 2fbd 347c b53d
000000e0: fc88 5abd a152 c23d 80d1 1dbb 9f7c 6d3d
000000f0: 12e2 8c3d 4516 843d 8d1d 8dbd c4d1 c6bd

raise_mean.weight f4 [1, 64]
0.05635424 -0.059216708 -0.053785056 0.038254753 0.07717919 0.03942415 -0.02956286 -0.010125548
-0.041296184 -0.04388672 -0.09386742 0.06626278 -0.060104042 0.02749741 0.0999572 0.02274701
0.018900469 0.072834164 0.122981906 0.033768266 -0.012596965 -0.039753586 -0.012442544 0.094683915
-0.0059668124 -0.10620949 0.059306547 0.09431556 -0.005109161 0.12088777 -0.01638046 -0.03572084
0.06167452 -0.10647628 -0.034630597 0.034769595 -0.11834903 -0.06223069 0.007866576 0.08907685
0.09305221 -0.033864334 0.01404959 0.093863666 0.08051118 -0.056960717 0.08822532 0.0031459928
-0.031239063 0.10115573 0.018178612 0.116876066 -0.017335847 -0.08471641 0.058162928 0.0630821
0.104864776 -0.11511113 0.015308574 -0.029064178 0.0040057898 0.08492753 -0.10136157 0.0051603466
00000000: b4d3 663d 388d 72bd b84d 5cbd 04b1 1c3d
00000010: 2010 9e3d 387b 213d d02d f2bc a0e5 25bc
00000020: 3026 29bd 90c2 33bd 903d c0bd c8b4 873d
00000030: a82f 76bd 4042 e13c 5cb6 cc3d f057 ba3c
00000040: 28d5 9a3c 142a 953d f0dd fb3d 9850 0a3d
00000050: 8063 4ebc a8d4 22bd d0db 4bbc a4e9 c13d
00000060: 4085 c3bb 5c84 d9bd 6ceb 723d 8428 c13d
00000070: c06a a7bb 0294 f73d 5030 86bc 0450 12bd
00000080: 6c9e 7c3d 3c10 dabd d0d8 0dbd 906a 0e3d
00000090: fa60 f2bd 9ce5 7ebd d0e2 003c ec6d b63d
000000a0: 2892 be3d 54b5 0abd 4030 663c 983b c03d
000000b0: 0ce3 a43d a44f 69bd 7aaf b43d 002d 4e3b
000000c0: 10e9 ffbc bc2a cf3d 50eb 943c b85c ef3d
000000d0: e803 8ebc cc7f adbd 403c 6e3d 3031 813d
000000e0: 58c3 d63d 62bf ebbd d0d0 7a3c 0018 eebc
000000f0: 0043 833b 7cee ad3d a896 cfbd 2018 a93b
