backend/models/poker_ppo_agent_3.pth (torch, 31852 bytes, 8 tensors)

fc.0.weight f4 [64, 34]
000000 6c ab 97 3d 1c 67 1b bd 6c c4 46 bd 54 04 c0 bd
       0.07405743 -0.03794013 -0.048527166 -0.093758255
000010 34 8c 9e bd 64 6f 19 3d cf 2f cb bd 06 af d3 bd
       -0.077415854 0.037459746 -0.09921228 -0.103361174
000020 6f 61 2d be 39 57 bd bd 31 ed 24 3e e8 e6 fc 3c
       -0.16931699 -0.09245152 0.16106106 0.030871823
000030 e4 0a 4d bd e5 7b 08 be b4 09 91 3d 4c 01 41 bd
       -0.050059214 -0.13328512 0.07081929 -0.047120377
000040 b8 e4 df 3c 82 e0 a8 bd 60 58 fc bb ce 41 2d be
       0.027330741 -0.082459465 -0.007700965 -0.16919634
000050 84 7c 07 bd 55 32 fe bd 78 b8 96 bd de 60 ed 3d
       -0.03307773 -0.12411944 -0.07359403 0.115907416
000060 58 68 66 3d dd 86 21 3e 6c 7a 4f bd d0 b2 45 3d
       0.056251854 0.15774103 -0.05065386 0.048266232
000070 00 44 03 bb 3c 72 4f 3d d0 91 a3 bd 74 5f 41 3d
       -0.0020029545 0.05064605 -0.07986796 0.04721017
000080 c6 a5 ab 3d 1c 46 14 3d 3a 5d b8 bd 49 94 24 3e
       0.08381228 0.036199674 -0.090021566 0.16072191
000090 bd 24 67 3d f8 f8 1e 3e 27 3e 21 be c4 16 27 3b
       0.05643152 0.15524662 -0.15746365 0.0025495747
0000a0 77 7d b7 bd 87 36 e8 bd ea 92 0f be 35 df 28 be
       -0.089594774 -0.11338525 -0.14020887 -0.16491397
0000b0 7f 3e 90 3d a2 61 d5 bd dc d7 e2 bd e2 67 6c 3d
       0.0704317 -0.104190126 -0.11076328 0.057716258
0000c0 4b 48 f8 bb ca 4b 0b 3e 01 95 ab 3d 87 d7 a0 3d
       -0.0075769774 0.1360313 0.083780296 0.078536086
0000d0 af 5d e1 bd 49 cf f1 3c 5c 43 5c 3d cc 45 34 bd
       -0.11004197 0.029517787 0.053775176 -0.044011876
0000e0 61 22 8e bb 0e 32 be bd ee d8 fc 3d 38 53 23 3e
       -0.0043375944 -0.09286891 0.123460636 0.15949714
0000f0 c5 ad c7 bd 98 86 e3 bd e4 57 17 3e 83 7d cb bc
       -0.09749941 -0.11109656 0.14779621 -0.024840122
000100 54 ac 81 3d 49 e7 ea 3d 48 46 b1 bd 78 1c 0a 3d
       0.06331697 0.114698954 -0.08655983 0.033718556
000110 b0 01 f9 3c 64 e4 93 bd 76 f6 1a be c8 2e 2d 3d
       0.030396312 -0.072212964 -0.1513308 0.042280942
000120 18 be a7 3c 85 ba d7 bd 43 7a 2d be 00 96 9d 3d
       0.020476386 -0.10533623 -0.1694117 0.07694626
000130 54 f0 7f bd 0d 78 8f bd 51 1b 95 bd 90 9c 33 3c
       -0.062485054 -0.0700532 -0.07280601 0.01096262
000140 10 97 0c bd 8e d4 fa 3d ae 5e b1 3d 82 eb b6 3d
       -0.034323752 0.12247573 0.08660637 0.08931638
000150 ec 17 2b be b0 44 44 bd 73 d4 ef bd 58 a3 8b bc
       -0.16708344 -0.047917068 -0.11710443 -0.017045662
000160 d3 9d 0c be 75 df 03 be b6 28 9d 3d 8c ad 14 be
       -0.1373208 -0.12878211 0.076737806 -0.14519328
000170 f0 72 23 bd 20 0c 39 bd b0 2b e6 bd 40 53 0c bd
       -0.039904535 -0.04517758 -0.112388015 -0.03425908
000180 de 78 81 bd 99 68 92 bd 01 88 16 3e 8c f6 2f 3d
       -0.06321882 -0.07148857 0.14700319 0.042959735
000190 a0 d9 11 3d 98 76 a2 3c 53 39 cd bd 28 d9 06 be
       0.035607934 0.01983194 -0.10020699 -0.13168776
0001a0 62 3d b2 bd d7 34 ad bd 7f ae 02 3e f1 b3 03 be
       -0.08703114 -0.08457344 0.12761877 -0.12861611
0001b0 63 8b 1b 3e 8c e0 2a be ee ab ed 3d 95 2a d8 bd
       0.1518989 -0.1668722 0.116050586 -0.10554997
0001c0 7f a4 1f be 26 39 fb bd fd b8 84 bd 48 21 9d bc
       -0.15590094 -0.122667596 -0.06480596 -0.019180909
0001d0 3e 1d 8f bd a2 67 b1 3d 24 b4 8d bd 08 c9 e3 bd
       -0.069879994 0.086623445 -0.06919125 -0.11122328
0001e0 f6 80 d7 3d 42 c4 1a be d4 cf 45 3d cd 67 ca bd
       0.10522644 -0.15113929 0.048293903 -0.0988308
0001f0 58 60 9a bc ee 84 d0 3d 68 cb 9b 3d fe b5 be 3d
       -0.018844768 0.10181604 0.07607156 0.09312056
000200 76 d8 a6 bd 0e 8c 2a be 00 8f 5d 3a 6e 5d a9 3d
       -0.081467554 -0.16654989 0.00084517896 0.082697734
000210 5c 0b ab bd 60 1f 21 bc 9a 0c a2 3d 3b 70 09 be
       -0.08351776 -0.009834141 0.0791256 -0.13421719
000220 24 f2 ee bc 18 4f 58 3c ee 93 0e bd b3 58 a7 bd
       -0.029168196 0.013202451 -0.034809045 -0.08171215
000230 b7 a1 2e 3d f7 3a c7 3d f8 63 53 bd 85 35 06 3d
       0.042634692 0.097280435 -0.05160901 0.032765884
000240 c0 5c 1b 3c 46 0e 8b 3c c4 f4 22 3d 94 00 d0 3c
       0.009482563 0.01697458 0.039784208 0.0253909
000250 d8 a6 c7 3d 0e 0d b1 bb 03 7d f2 3d ae cf a6 bb
       0.0974862 -0.0054031676 0.1184025 -0.0050906753
000260 3b dd 5a 3d 7f 95 2a be ac cf e8 bd a3 14 12 be
       0.053433638 -0.1665859 -0.11367735 -0.14265685
000270 2a 3c db 3d 32 30 12 be b9 a6 27 be 24 50 24 3d
       0.10704835 -0.14276198 -0.16372193 0.04011549
000280 dd e5 22 3e ac e5 1e 3c ce c6 62 3d 47 3b c6 bd
       0.15907998 0.009698313 0.055365376 -0.09679275
000290 23 fb ac bd 60 d7 27 3e 88 fc b8 3c 27 7d 99 3d
       -0.08446338 0.16390753 0.022581354 0.07494574
0002a0 2c 4a 0f 3e 01 33 dd 3d a8 60 82 3d dc 10 af 3c
       0.13993138 0.10800744 0.06366092 0.021370344
0002b0 25 b7 fc bd 58 63 61 3c 88 5c 82 bd 30 85 21 3e
       -0.123396195 0.013756596 -0.06365305 0.15773463
0002c0 67 ae 26 bd 05 55 16 3d 06 a7 df 3d ab 19 ca bc
       -0.040693667 0.036702175 0.10920529 -0.024670443
0002d0 ab 0d 0c 3e e0 4f 09 3c d2 3f e3 bd 0e df 1c bd
       0.13677089 0.00838086 -0.11096157 -0.03829866
0002e0 f5 7a f6 3d da 6f dd bc 6f ad 4f bd 7a 32 1c be
       0.12035171 -0.027030874 -0.05070251 -0.1525363
0002f0 ab b3 15 3e 2d eb 90 3c 24 d3 2b be 6a e5 b3 bd
       0.14619319 0.017690266 -0.16779763 -0.08783992
000300 b0 cd 72 3c f7 fe 11 be 64 93 3b 3d ae 76 d7 bd
       0.0148195475 -0.14257418 0.04579486 -0.10520683
000310 85 17 2a 3e a9 6e 9d 3d 70 da 1b 3e c4 eb aa bd
       0.16610534 0.076871224 0.15220046 -0.0834575
000320 76 52 a9 3d e2 7c dd 3c b0 51 d4 3d 05 8b 0b be
       0.08267681 0.027037088 0.10367143 -0.1362725
000330 72 8d 51 bc e4 90 76 3c 94 93 90 3d ab b6 75 bc
       -0.012790071 0.015049193 0.07059398 -0.014997165
000340 84 9d 04 bd 1c 97 13 be a6 cd 35 3d 7e f6 25 3d
       -0.03237678 -0.14413112 0.044385575 0.040518276
000350 79 e1 00 be d2 6d a1 bd 4f 63 0f be 05 e6 65 3d
       -0.12586011 -0.07882275 -0.14002727 0.056127567
000360 cd 71 c2 bc 62 fe 6e bb 39 49 09 3e 48 ff 48 bd
       -0.023735905 -0.0036467542 0.13406838 -0.04907158
000370 e1 8b c3 3d ec 00 26 3e 30 51 bb 3b e6 dc 33 bc
       0.09548164 0.16211289 0.0057164654 -0.010977959
000380 8d 63 15 3e 39 e4 25 3e 50 a2 99 3d fd 1d 09 3e
       0.14588757 0.16200341 0.07501662 0.13390346
000390 1c 81 29 3d 54 e8 48 bd a9 db 95 bd 8d ad 09 3d
       0.041382894 -0.04904969 -0.073172875 0.033612777
0003a0 fc f0 f0 3d 6b 61 e9 bd da e9 18 be 2b f0 2c bd
       0.11764714 -0.11395534 -0.14932957 -0.04222123
0003b0 e7 da 22 be fa 21 68 bc db d1 48 bd b8 86 bb 3d
       -0.15903817 -0.014168257 -0.04902826 0.09156555
0003c0 e6 d6 19 3d 81 f3 c3 3d 25 85 26 bd 4b f4 08 3e
       0.03755846 0.09567929 -0.04065432 0.1337444
0003d0 c1 66 25 be 5b f1 54 3d d9 36 2e bd 81 c6 f7 bd
       -0.16152479 0.051987987 -0.042532776 -0.120984085
0003e0 37 e7 22 bd e4 c4 c3 3c ee 4a 07 3e 28 63 24 3e
       -0.039771285 0.023897596 0.13212177 0.1605345
0003f0 43 66 68 bd e1 22 a8 3c cc 98 4d bd 72 35 75 3d
       -0.05673815 0.020524444 -0.050194547 0.059865423

fc.0.bias f4 [64]
000000 80 33 bf bc 45 d1 71 3d f3 76 dc bd d2 da de 3d
       -0.023339987 0.059037466 -0.10764875 0.108815804
000010 61 1f 2a 3d 1e a5 00 3e 7e d8 f1 bd b7 6d 52 bd
       0.04153383 0.12562987 -0.11808871 -0.051374163
000020 3d 2e a8 3d e9 ad a4 bc f6 ac 2c bc 58 7d 10 be
       0.08211944 -0.020102458 -0.010539284 -0.14110315
000030 44 6d 28 3e 5f 61 0e be 73 db c9 bd f2 95 fc bd
       0.16447932 -0.13904332 -0.0985631 -0.12333287
000040 24 d7 24 3e 71 0a 0b be b0 45 c7 3d 13 65 2a 3e
       0.16097695 -0.13578202 0.09730089 0.16640119
000050 76 fc e3 bc e9 b8 f7 bd e7 09 16 be 06 c8 de 3d
       -0.027830344 -0.12095816 -0.14652215 0.10877995
000060 54 a7 25 be 96 93 52 bd b4 80 c6 bc 99 14 e4 3b
       -0.16177112 -0.05141028 -0.024231292 0.0069604632
000070 9a 26 20 3e 43 f1 15 be 0f 63 76 bd c4 e5 fa bc
       0.15639725 -0.14642815 -0.060153063 -0.030627139
000080 07 65 a7 3d 1b 02 57 bd d4 0e 2a be 88 50 06 3e
       0.08173566 -0.052492242 -0.16607219 0.13116658
000090 34 1e d6 3d 89 72 4c 3d a6 0e 23 3e c0 9d 4d 3b
       0.104549795 0.049913917 0.15923557 0.0031374544
0000a0 97 c2 63 bd 24 a0 d9 3c 27 f3 23 be 3b bb ec bc
       -0.055605497 0.026565619 -0.16010724 -0.028897872
0000b0 8d a0 97 3d cc 4d 16 be 08 dc a0 bd 64 19 ef bd
       0.074036695 -0.14678115 -0.07854468 -0.11674765
0000c0 d5 18 0c be 07 ca 88 3d 71 75 a9 bd 2e 57 27 be
       -0.13681348 0.06679159 -0.08274353 -0.1634185
0000d0 ba 76 b0 bd 64 1c 3e bc 15 08 1b be e2 ff 20 be
       -0.08616395 -0.011603449 -0.15139802 -0.15722612
0000e0 54 17 cc bd fc ea 0d be 6b 0a 9f bd b3 59 b9 3d
       -0.09965387 -0.1385917 -0.07765659 0.09050312
0000f0 6f 27 88 3d 46 6c 84 bd 3a 23 45 3d 6a 3f 8f bd
       0.06648146 -0.06465964 0.048129298 -0.06994517

fc.2.weight f4 [64, 64]
000000 e4 95 3e 3d 0b 73 9d 3c 20 4a b8 3d 0c 36 66 bd
       0.046529666 0.019219896 0.08998513 -0.056203887
000010 b0 01 7e 3c d8 6e b4 bc 43 c9 e5 bd 5a ca ae bd
       0.015503332 -0.02202551 -0.11220028 -0.08534689
000020 c2 e4 9b 3d ec 18 df 3d 7e bf f4 3d de 2d cf 3d
       0.076119915 0.10893425 0.11950587 0.1011617
000030 c4 4b 92 3d 00 08 17 3a d8 3c 2c bd ff 7e b9 3d
       0.071433574 0.0005761385 -0.042050213 0.09057426
000040 b9 63 89 3d 08 e3 ab bc c8 a5 48 3d 80 10 12 bc
       0.06708474 -0.02098228 0.048986226 -0.008915067
000050 b9 ce 5d 3d 3c 48 d5 bd a6 c2 ff bd c0 1b 54 bd
       0.054152224 -0.10414168 -0.12488298 -0.051784277
000060 1a a7 ba bd 85 95 fc bc 11 5d 50 bd a2 6d 29 bd
       -0.09113903 -0.030833015 -0.050870005 -0.04136432
000070 26 ae 8b 3d 0e 8f 87 3d 33 71 d7 3d 8f e2 2e bd
       0.068203256 0.066190824 0.10519638 -0.04269653
000080 04 80 27 3d fb 31 76 3c c2 2b 29 bd 58 42 2c bd
       0.04089357 0.015026565 -0.041301496 -0.042055458
000090 2e 6c 81 3d d6 db 87 3a d8 52 46 3d e0 5b c4 3b
       0.06319462 0.0010365199 0.04841885 0.0059923977
0000a0 34 27 6b bd 66 42 cb 3d 67 0f 9f bd f8 69 c5 bd
       -0.057410434 0.09924774 -0.0776661 -0.096393526
0000b0 4a 17 fb bd 74 76 8b 3d 53 f9 df bc af f0 1b 3c
       -0.122603014 0.068097025 -0.027340567 0.009517833
0000c0 bd 17 9c 3c 2a 95 79 bd 08 9f ad 3c 26 29 dd 3d
       0.019054288 -0.06093327 0.021193996 0.10798864
0000d0 fb a4 71 3d ac 44 21 bd 34 cc 2b bd 18 0d f6 bc
       0.05899523 -0.03937213 -0.04194279 -0.03003554
0000e0 b0 0a 93 3d 10 52 83 3d 58 31 eb 3c ed 2d 4a bd
       0.07179773 0.064121366 0.028710052 -0.049360204
0000f0 79 50 4a 3d 90 a3 6c 3c 9a 7f 7e bd c4 d8 fd bd
       0.04939315 0.014443293 -0.06213341 -0.123948604
000100 3c d3 f0 3d 6f 36 b3 3d 12 73 c6 3d 34 a8 4b bd
       0.1175904 0.08750617 0.09689917 -0.049720958
000110 56 68 c2 3d 6e 00 48 3c a7 02 95 3d 40 19 df 3c
       0.09492557 0.012207134 0.072758965 0.02723372
000120 5b 24 48 3d 0c b9 5b 3d 18 96 dd 3d 88 dc e3 bc
       0.048862796 0.05364327 0.10819644 -0.027815118
000130 db 81 1c bd a8 b1 04 3d c0 06 62 3b 41 6e f8 3d
       -0.038209777 0.03239599 0.0034488887 0.12130404
000140 f7 cc f8 3d 46 31 66 bd bd b9 a4 bd 40 20 b3 bb
       0.12148469 -0.056199335 -0.08043239 -0.005466491
000150 33 16 31 bd 86 31 41 bc 2f 12 bd bc c8 39 68 bd
       -0.04323406 -0.011791592 -0.02307996 -0.05669573
000160 41 42 eb 3d 38 c2 d7 3d 9b b7 26 bd 7a 3f fe 3c
       0.11487246 0.10535091 -0.040702444 0.031036127
000170 ed d3 bb 3b 90 83 2b bd 0f 81 88 bd 10 1c 67 bd
       0.0057320506 -0.041873515 -0.06665241 -0.056423247
000180 bc f1 c5 3d 05 4c f1 bd ca e9 ea bd 9b 9a 43 bd
       0.09665248 -0.11782078 -0.11470373 -0.047754865
000190 a2 53 b3 bd 13 4a f2 bd 2c 9b ed bc a6 11 d1 bd
       -0.08756186 -0.11830535 -0.029004656 -0.10208444
0001a0 a4 b5 95 3d 9f 26 ac 3d 04 e5 9c 3d 1f d6 d6 bd
       0.07310036 0.08405804 0.07660869 -0.10490059
0001b0 d8 60 7c 3c 66 35 ed bd 33 a8 24 bc b7 99 d6 3c
       0.015403949 -0.115824506 -0.010049867 0.026196344
0001c0 b9 82 f9 3b 5d d2 7f 3d e6 88 02 3d 22 0f a3 bc
       0.0076144603 0.062456477 0.031868838 -0.019904677
0001d0 84 64 6d 3d d0 12 85 3d 05 01 9a bd 56 42 61 3b
       0.057957187 0.06497729 -0.07519726 0.0034371815
0001e0 b4 71 fa 3d 05 8f 2c 3d bc 46 61 3d 4c 61 6a 3d
       0.122287184 0.04212858 0.0549991 0.057221696
0001f0 c0 5b 85 3d 73 e6 f4 bc a2 e3 74 bd 54 a8 fe bd
       0.065116405 -0.029895043 -0.0597874 -0.1243445
000200 c0 bc 1f 3d b0 6a 80 bc 40 a7 05 bc 8c fb fb 3d
       0.038998365 -0.015675873 -0.008157551 0.12303838
000210 80 f9 f1 3d 04 9e 4f 3d 70 46 91 bd 74 f2 80 bd
       0.118151665 0.050687805 -0.07093513 -0.06296244
000220 b8 7c 22 bd 2e 0d b9 3d 3c ae e9 3d 64 c2 cb bd
       -0.039669722 0.09035717 0.11410186 -0.099491864
000230 ec 62 a7 3d 94 8d 58 3d 5c 3e 96 3d ac 67 80 3d
       0.08173165 0.052869394 0.07336113 0.06269774
000240 34 a3 9c bd 94 cd d3 bd d0 c3 5c bd b0 ef 74 3d
       -0.07648316 -0.10341945 -0.05389768 0.059798896
000250 88 cd 54 3d 00 e0 ef 39 b0 71 68 3c 58 ec 5a bd
       0.051953822 0.00045752525 0.014187261 -0.05344805
000260 ec 0d eb bd 3a 3b b1 bd 7c fa 57 3d 38 27 79 3d
       -0.11477265 -0.08653875 0.052729115 0.060828418
000270 a4 57 21 3d e8 ae ea 3d 2c d0 fa bd 96 20 fd bd
       0.03939022 0.11459142 -0.12246737 -0.12359731
000280 c4 3e f1 bd 60 7c 55 3d 0e 32 d5 3d 98 bf fa 3d
       -0.1177955 0.052120566 0.10409938 0.12243575
000290 ee a9 f2 3d 2c cd 7b 3d 64 33 79 bd f0 66 e3 3d
       0.11848818 0.061474964 -0.060840026 0.11103618
0002a0 b8 b0 07 bd ec bb 46 bd c4 8b bf bd e0 08 fb bb
       -0.033127517 -0.04851906 -0.0935283 -0.00766097
0002b0 a0 43 a5 3c 72 35 91 3d a8 70 1c 3d b4 1d 3c 3d
       0.020173848 0.07090272 0.038193375 0.045926765
0002c0 d4 fb 09 bd b2 26 9c 3d d0 80 53 3c 5c 0f 1e 3d
       -0.033687428 0.07624568 0.012909129 0.038588867
0002d0 5a e4 89 bd 94 33 00 3d 08 56 5d 3d 68 38 f1 3c
       -0.06733008 0.03129919 0.054037124 0.029445842
0002e0 00 5a 85 3a c0 62 7d 3b 30 02 1e 3c 64 27 bc bd
       0.0010173917 0.0038663596 0.009644076 -0.09187201
0002f0 84 5c d2 bd 70 b8 2e bd 6c 67 b3 bd d0 63 e9 bc
       -0.10271552 -0.042656362 -0.087599605 -0.028489977
000300 6c 89 49 bd 60 db c1 bd b8 34 f1 bd c4 69 07 3d
       -0.04920332 -0.094656706 -0.117776334 0.03305985
000310 8f 20 3d 3d dc 68 f2 bc df 28 3c 3d e6 bd 2c 3d
       0.04617363 -0.029591016 0.045937415 0.04217329
000320 04 dc b9 3c 07 b4 95 3d 87 46 67 bd 60 8d 5d bd
       0.02268792 0.07309728 -0.056463744 -0.054089904
000330 c9 95 e1 3d e1 53 ab bc 00 fa 11 3d 2d 03 a2 bd
       0.110148974 -0.02091402 0.03563881 -0.07910762
000340 c4 0b 46 3b e8 b8 6f 3d 97 23 da bd f0 b7 90 3c
       0.0030219415 0.05852595 -0.106513195 0.017665833
000350 87 62 37 3d 3c f5 cb bd b9 61 2f 3d 14 38 f5 bd
       0.044771697 -0.09958884 0.042817805 -0.11973587
000360 10 13 90 3b ca 44 75 3d 8f df 47 3d 16 9f 5b 3d
       0.0043968037 0.059880055 0.048797186 0.053618513
000370 5f fe 97 bc ce f9 3c 3d 05 88 ee bd 72 10 70 3d
       -0.01855391 0.04613667 -0.116470374 0.058609433
000380 59 0c de bd 5b 62 99 3d 17 eb 73 3d 1b 0e 41 bc
       -0.10842199 0.07489463 0.05955037 -0.011783148
000390 e8 88 da 3d c9 fb ce bd 1d 2b 0c 3d 5c 52 74 bd
       0.10670644 -0.10106618 0.034220804 -0.059648857
0003a0 b3 21 10 3c 87 d5 5c bd da 97 a8 3c 8f 32 f4 3d
       0.008797097 -0.053914573 0.020580221 0.11923706
0003b0 a4 20 ad bd 30 9b 50 3c 6b 59 10 3c 6d 78 90 3b
       -0.08453491 0.012732312 0.008810381 0.004408887
0003c0 36 e9 d6 bd d3 8a 16 bd 82 a6 c9 bc 20 f1 f6 bd
       -0.104937 -0.036753487 -0.02461553 -0.1205771
0003d0 17 f2 98 bd 04 9a bf 3d d7 1d e3 bd 70 6e 09 bd
       -0.0746805 0.09355548 -0.11089676 -0.033552587
0003e0 9b 99 5f 3d de 57 b9 3d 24 df 19 bd 97 68 4d bd
       0.05458985 0.090499625 -0.03756632 -0.050148573
0003f0 83 f2 e2 3d f9 7f e7 3d bf d6 9a 3d f7 5d 65 3d
       0.11081412 0.11303706 0.07560491 0.055997815

fc.2.bias f4 [64]
000000 b5 f3 b9 3d f6 9d c0 3c 10 f2 f5 3d df 86 38 bd
       0.090796866 0.023512822 0.120090604 -0.045050498
000010 a0 e7 25 3c da 25 03 3e a7 2d eb 3d c9 b7 b4 bd
       0.0101260245 0.12807408 0.11483317 -0.08824117
000020 2c b9 b1 bd 4a c5 d5 3d 1a 8f d5 bd 5d ff 2d bd
       -0.08677897 0.104380205 -0.10427685 -0.04247986
000030 c0 42 d9 bc 40 16 1a bb 52 2a 95 3b 40 66 c8 3d
       -0.026521087 -0.0023511797 0.004552164 0.09785128
000040 d2 33 55 bd 17 e2 6d 3d 31 ae 9c bb 8d 4b f0 bd
       -0.052051373 0.058076944 -0.0047815074 -0.1173316
000050 01 2e 6c bd 08 ae 90 3b 83 1e e5 3d bc 52 9f 3d
       -0.05766106 0.0044152774 0.1118746 0.07779452
000060 ab fe 9f 3c 50 7e 88 3d 6d 21 e9 3d 61 fa 8b bd
       0.019530615 0.06664717 0.113833286 -0.06834865
000070 a2 c5 5b 3c d6 03 d3 bc e6 e2 65 bd fa 1d f7 3d
       0.013413819 -0.025758665 -0.05612459 0.120662645
000080 64 b7 65 bd 36 f4 e8 bd e5 57 f6 bd 23 cb fc bd
       -0.056083098 -0.113747045 -0.12028483 -0.12343433
000090 ea 0c 9c 3c d9 c0 8f bd c7 1f fd 3d 28 8f d3 3d
       0.019049127 -0.07019205 0.12359577 0.10330039
0000a0 5e 26 9c 3d 44 3c 11 bd 7c 84 a6 3c f9 af 5d bb
       0.076245055 -0.035457864 0.020326845 -0.0033826812
0000b0 76 72 75 3d 0b 37 be 3c 05 f4 db bd b0 16 f5 3c
       0.05992361 0.023219606 -0.107399024 0.029918045
0000c0 6d dd 9a bd 9d b6 05 bd ae bf 57 bd 7d 46 8f ba
       -0.07561765 -0.032644857 -0.052673034 -0.0010931041
0000d0 11 3d 8a 3d 13 c6 98 bd 67 ff a3 3d b3 a6 00 3c
       0.06749929 -0.07459655 0.080076985 0.007852244
0000e0 2e a7 ce 3d 51 17 cb 3d d0 5c 8c bd e6 32 e2 bd
       0.10090481 0.099165566 -0.0685364 -0.11044864
0000f0 b1 b1 9f bd b1 02 91 bc 65 5e 1f bd 01 61 80 3d
       -0.07797564 -0.017701479 -0.03890838 0.06268502

policy.weight f4 [4, 64]
000000 31 0f b1 3d b9 9a 15 3d b8 dc 6d 3d 9b a8 ab bb
       0.08645476 0.03652451 0.058071822 -0.005238605
000010 20 a5 27 3d 75 47 ac 3d 0c 1c f2 3d db a0 f5 3d
       0.04092896 0.08412067 0.11821756 0.11993571
000020 9b c9 de bd f4 92 b1 bc 56 67 ae bd 70 ff 32 bc
       -0.10878297 -0.021676518 -0.085158035 -0.010925159
000030 3a 6c 8b bd 14 ed 52 3d 42 33 d2 3b c4 04 4e bd
       -0.06807752 0.051495627 0.006414802 -0.050297514
000040 48 1b c9 bb 3a 27 fa bd 5a ce e3 3b 4c ad 3e bd
       -0.0061372854 -0.12214513 0.0069520893 -0.046551988
000050 1d 5d de bd 87 42 c5 bd 5b 8a e6 bd c5 68 c1 3d
       -0.10857604 -0.0963183 -0.11256858 0.09443811
000060 d7 cc 97 3d 20 6d 83 bd 52 60 07 3d eb 4a c0 3d
       0.07412117 -0.06417298 0.033050843 0.093892895
000070 a8 8c c0 bd fb 84 eb bd 9f c1 98 3d 96 26 d1 bd
       -0.09401828 -0.114999734 0.07458805 -0.10212438
000080 20 cb 22 3c f4 9b bd bd 80 0e 38 bd 6a 3c 34 3c
       0.009936124 -0.09258261 -0.044935703 0.011000732
000090 f3 99 a0 bb aa f3 2e bd c1 29 17 3d fe 7a f6 3d
       -0.0049011647 -0.042712845 0.036905054 0.12035178
0000a0 b6 cc d4 bc f6 42 dd bd 4e a0 9d bc 5a 8d 6d bd
       -0.02597652 -0.108037874 -0.019241478 -0.05799613
0000b0 4a c4 a9 3c 23 c2 b9 bd 41 af c6 3d 7a 54 bf bd
       0.02072348 -0.09070232 0.09701396 -0.093422845
0000c0 60 96 f0 3d bb cd b1 bc c6 06 86 3d 03 82 ff bd
       0.11747432 -0.021704545 0.06544261 -0.1247597
0000d0 c2 78 80 bd 78 b7 28 3d 45 89 db 3d db 94 29 3d
       -0.06273033 0.041190594 0.107195415 0.041401725
0000e0 96 d1 f0 3d c1 f3 c4 3d 8e aa 22 bc 90 39 a0 bd
       0.11758725 0.09616805 -0.009928359 -0.07823479
0000f0 e5 de ff bd 26 ae 18 bd c0 ae cf bd 0a e9 cb 3c
       -0.12493686 -0.037275456 -0.10140753 0.024891395
000100 cd 4e ed 3c 3d 94 c4 3d e4 b8 e9 3d 15 fc bd 3d
       0.02896824 0.09598587 0.11412218 0.092765965
000110 80 a0 86 3b 3e 7d de 3d 03 ba eb bd 2c 26 ac bd
       0.0041084886 0.10863732 -0.11510088 -0.08405718
000120 ee d7 d6 bc 44 ef 47 3d e0 80 dd bc 80 ed d8 3c
       -0.02622601 0.048812166 -0.027038991 0.026480436
000130 e9 64 57 bd 00 ef f0 bb 7c 86 d6 3d 4c 6f fb bd
       -0.05258647 -0.00735271 0.104748696 -0.122770876
000140 0c 4a b1 bd 05 ba 3c bd 37 43 f2 3d 4e 53 ed 3d
       -0.086567014 -0.04607584 0.118292265 0.11588155
000150 e4 fa cf 3d 87 74 2d 3d 78 56 d8 3d dd 04 39 3d
       0.101552755 0.042347457 0.105633676 0.045170654
000160 f4 81 ca 3d 9c 39 72 bd 4a 08 a0 bd 0c c5 61 bd
       0.09888068 -0.05913697 -0.07814081 -0.05511956
000170 c7 5a b9 bd 15 19 e6 bd 73 d0 e9 3b 78 45 f5 bc
       -0.090505175 -0.11235253 0.007135445 -0.029940352
000180 e0 c6 b9 bb 66 9a 2f 3d f4 48 d9 3d 53 01 ac bc
       -0.0056694597 0.042871855 0.10609618 -0.020996725
000190 2f 3a c8 3d b8 78 13 bd 2f 30 5f bd cc 4c b3 bd
       0.09776723 -0.0360038 -0.05448931 -0.08754882
0001a0 b0 fb 72 3d b0 dc 6e 3d f7 39 ac 3d 93 b6 e1 bd
       0.05932206 0.058315933 0.084094934 -0.110211514
0001b0 28 4e b5 bd 83 a3 bc 3d 3d 08 cd 3c 04 78 1f 3d
       -0.08852798 0.09210875 0.025028342 0.038932815
0001c0 e2 0d 9a bd 64 b0 af bd 2b c8 07 3d 16 00 d0 bc
       -0.07522179 -0.08578566 0.03314988 -0.025390666
0001d0 58 f8 d4 bd 68 b0 28 bd 94 5a 8b 3d 21 39 2f bd
       -0.1039893 -0.04118386 0.06804386 -0.04277909
0001e0 28 78 40 3d 34 01 e2 3d 62 ee ba bc 58 70 2c 3d
       0.04698959 0.11035386 -0.022818748 0.042099327
0001f0 92 28 e1 3d 91 18 a1 3d 7c 21 5d 3d 11 ce 30 3d
       0.10994066 0.07866014 0.05398701 0.04316527
000200 dc ab e0 3d 9c a9 c2 3d 00 63 6a 3a 08 4d 15 b9
       0.109702796 0.09505007 0.0008941144 -0.00014238444
000210 e8 63 42 3d 9f 88 eb bc a7 1c 96 3d 31 c6 37 bd
       0.04745856 -0.02875167 0.07329684 -0.044866744
000220 ea 2b e2 bd 00 06 80 3d 4a fc 81 bd ed f1 58 3d
       -0.11043532 0.062511444 -0.063469484 0.052965093
000230 e8 64 e5 bd 18 06 c2 bc 5f 49 03 3e 98 b9 29 3d
       -0.11200887 -0.023684546 0.12820958 0.04143676
000240 c9 d2 b3 3d 4b 37 cb 3d b7 78 f3 bd 1b d4 8f 3d
       0.087804385 0.09922656 -0.11888259 0.07022878
000250 13 bb 01 3e 22 52 00 3e 5f 20 f5 3d d6 34 f9 bd
       0.1266902 0.12531331 0.11969065 -0.12168281
000260 f1 f5 0d 3b 59 fd 96 3c 5c a6 e0 3d f2 c1 16 bc
       0.0021661485 0.018431352 0.109692305 -0.009201514
000270 b7 2d 7e bc 1e 65 ed bd 23 64 24 3d 60 02 a1 3b
       -0.015513829 -0.11591552 0.04013456 0.004913613
000280 d8 e3 a9 bc 42 ef dd bd 79 9f 48 bd 2a 6a 8c 3d
       -0.020738527 -0.108366504 -0.04898021 0.06856187
000290 2c 68 c4 3d 3c 06 57 bc 94 19 90 bd d8 59 de bc
       0.09590182 -0.013124045 -0.07036129 -0.02714245
0002a0 8d 6d b0 3d a0 c2 47 3c 02 27 5c 3d f1 de a1 3d
       0.08614645 0.012192398 0.05374814 0.07903851
0002b0 b5 76 9e 3c 90 01 a5 3d 7e df 3c 3b 2c 4d ee 3d
       0.019343713 0.08056939 0.0028819735 0.11635813
0002c0 1f 84 ea bd cb de 91 3d 9c 32 92 bd 9f 4c bc 3c
       -0.11450981 0.071225725 -0.07138559 0.022985755
0002d0 9f b1 b0 bc 93 ac 89 3d 37 2e fa bd 46 d9 d8 bd
       -0.021569071 0.06722369 -0.12215846 -0.105883166
0002e0 28 ac 31 3d fa ae ec bd 27 00 48 bd a0 50 90 bc
       0.04337707 -0.11556812 -0.04882827 -0.01761657
0002f0 8e 05 f1 ba 43 37 73 3d e3 3b e1 3d 0f 2c 35 3d
       -0.0018388496 0.059378874 0.109977506 0.04423147
000300 24 10 33 3d 1d c1 ac 3d b2 ba 9e 3d 81 53 d5 3c
       0.043716565 0.08435271 0.07750453 0.026040794
000310 08 1d d5 3c c2 72 49 3d 5e 0b 01 bd eb 6d f3 3b
       0.02601482 0.049181707 -0.03150498 0.0074288747
000320 6d cf c4 bd 35 7b b2 3d c6 15 8b bd e6 f6 94 bc
       -0.09609876 0.08714906 -0.06791262 -0.018184137
000330 c7 b0 b3 3d 82 c6 b4 bd d7 c1 f2 3d af a8 6f 3d
       0.08773952 -0.08826925 0.11853378 0.05851048
000340 b0 b5 c1 3d 88 c8 e1 bd f0 b0 78 bd f6 dd 1d 3c
       0.09458482 -0.110245764 -0.060715616 0.009635439
000350 46 ee b3 bb f5 7d 8c bb 60 69 38 3d 02 83 15 3c
       -0.005491051 -0.004287476 0.04502237 0.009125473
000360 cd 9a b9 3d 67 b0 17 bd fa 18 c2 b9 ab 67 a6 3d
       0.09062729 -0.037033465 -0.00037021172 0.08125242
000370 9e e7 b5 3c 1f 9a 1e bb d6 5c b8 bb d2 e2 b4 3d
       0.02220517 -0.002420075 -0.0056263013 0.08832325
000380 ec af 4f bd 4a 60 f0 bd c4 d0 8b bc 8d 72 3d bd
       -0.05070488 -0.11737116 -0.01706732 -0.046251822
000390 ad 92 83 bc 81 2a e3 3d 28 11 12 bd 9c e3 ab 3d
       -0.016061151 0.11092091 -0.035660893 0.083930224
0003a0 41 c8 1c 3c 30 ce 15 3c 54 43 73 3c 57 a0 b9 3d
       0.009569229 0.009143397 0.014847595 0.090637855
0003b0 b5 ad e0 bd 0e e1 0b bd 60 a3 49 bc c0 32 7b bd
       -0.10970632 -0.034150176 -0.012307018 -0.061327696
0003c0 d0 a2 80 3c e0 28 6e 3d 34 89 ca 3d 34 01 b8 bd
       0.015702635 0.05814445 0.09889451 -0.089846045
0003d0 5e 90 f3 bd 4c 25 ce bb 11 f9 e2 bd fd 56 85 3a
       -0.1189277 -0.006291067 -0.11082662 0.0010173019
0003e0 3a 0a c5 bd 49 08 e9 bd 89 af 38 3d 68 b6 c4 3c
       -0.09621091 -0.113785334 0.04508928 0.02401276
0003f0 bc 0f 87 3c 93 ac a9 bd 90 f5 89 bc 90 3c de bd
       0.016486995 -0.08284869 -0.016840726 -0.10851395

policy.bias f4 [4]
000000 72 03 3b 3d 5b f9 ed bd 63 81 74 3d bf ed 24 3d
       0.045657583 -0.116198264 0.059693705 0.040265795

value.weight f4 [1, 64]
000000 c1 0f c1 3d ff f1 d9 bb a4 f2 37 bd a3 73 b2 bd
       0.09426833 -0.0066511626 -0.044909135 -0.08713462
000010 28 c2 24 bd 32 7d ca 3c 49 02 00 bd 9d 59 fa b9
       -0.040224224 0.0247179 -0.03125218 -0.00047750483
000020 be 1f f9 bd 88 7e 87 bd 04 81 8d bd 54 47 24 3c
       -0.121642575 -0.06615931 -0.069093734 0.010026772
000030 f1 03 eb 3c 2c 91 b5 3d 69 38 86 3d 32 25 b1 3c
       0.028688403 0.0886558 0.06553728 0.021624181
000040 ca 34 de 3d bb 21 29 3d 25 ae 9b bd 45 65 14 bd
       0.108499125 0.041291934 -0.07601575 -0.03622939
000050 83 a1 0c 3c 06 80 df 3c fa 0e 44 3c 01 02 ac 3d
       0.008583429 0.027282726 0.011966461 0.0839882
000060 89 96 8e 3d 1b 45 f2 bd 5b 31 9c bd 6b 1d 6d 3d
       0.06962306 -0.11829587 -0.07626601 0.057889383
000070 cd f8 bb bd d4 d2 cd bb 7b 61 a9 3d 98 7b 16 bd
       -0.09178314 -0.006281236 0.08270546 -0.036738962
000080 94 e9 2c bd 51 44 a4 bd f6 f0 b4 bd c3 71 1a bd
       -0.042214945 -0.08020843 -0.08835022 -0.037706148
000090 e6 f9 7a bd 37 08 98 3d 94 e2 c2 3d c4 dc da 3d
       -0.061273478 0.07423442 0.095158726 0.10686639
0000a0 19 bb bd bc 82 8b e1 3d f9 90 80 bd 85 78 9b bc
       -0.023160504 0.11012937 -0.06277651 -0.018978367
0000b0 64 4e ba bd f1 cf a0 3d 93 e2 8a 3d 8c 32 de 3d
       -0.09096983 0.07852162 0.06781497 0.10849485
0000c0 ab 85 9f 3d 20 62 ba bd 31 24 ce bd 5c 20 a4 3b
       0.07789167 -0.09100747 -0.10065497 0.0050087404
0000d0 d5 cd 7b bd de ae e1 bd 4a d1 be bd 70 be 05 3d
       -0.061475594 -0.110196814 -0.093172625 0.03265232
0000e0 ec ec a2 bd 34 b8 82 3c de 98 e1 3d c8 6a e1 bd
       -0.079553455 0.015956976 0.11015485 -0.11006695
0000f0 13 98 93 bd 28 a3 9e bd fb 83 cf 3d b9 71 d6 3d
       -0.0720674 -0.07745963 0.10132595 0.104709096

raise_mean.weight f4 [1, 64]
000000 0c 89 de bd a8 bd 1e bd 50 ba 0a bd f4 89 d2 bd
       -0.10865983 -0.03875509 -0.033869088 -0.10280219
000010 8c d2 c0 bd 84 56 4c 3d 32 40 af 3d f0 b0 46 bd
       -0.09415159 0.049887195 0.08557166 -0.048508584
000020 d0 da d3 bc 8c 55 8e 3d b8 23 7e bd 18 b7 82 bd
       -0.025861174 0.069499105 -0.062045783 -0.063825786
000030 10 7e 3b bd e8 c1 e9 3d 20 b2 31 3c 0e ad 88 3d
       -0.04577452 0.11413938 0.010845691 0.066736326
000040 10 76 9f bc fc ca ec 3d c8 cf 32 bd c0 7e ad 3d
       -0.019465476 0.11562154 -0.043655187 0.08471441
000050 2e 9d c4 bd 44 54 b5 bd bc 46 6f bd 40 3f b6 bb
       -0.09600292 -0.08853963 -0.058417067 -0.005561739
000060 c0 70 7f bb b2 a5 b6 3d c4 54 ed bd 40 26 17 3d
       -0.0038977116 0.089183226 -0.115884334 0.036901712
000070 fc 95 c0 3d ac 9b 13 3d d8 ac 19 3d c6 00 fa 3d
       0.09403607 0.036037132 0.037518352 0.12207179
000080 74 00 57 bd 28 76 d8 bd 40 e8 12 3b 58 67 08 3d
       -0.052490667 -0.105694115 0.0022416264 0.03330168
000090 02 78 d2 3d 50 4f 8a 3d f2 64 84 bd 88 f3 cd bc
       0.10276796 0.06753409 -0.06464566 -0.025140539
0000a0 c0 50 a8 bd f4 4d d5 bd 56 d6 b4 bd ec 3c 45 bd
       -0.08218527 -0.10415259 -0.08829944 -0.048153803
0000b0 94 fa c8 bd 32 ea 95 bd a6 e8 c9 3d 5c 48 8a 3d
       -0.09813419 -0.0732006 0.09858827 0.06752083
0000c0 c0 5e ed 3c 06 e9 9a bd 18 15 ed 3d 0c ee 07 bd
       0.028975844 -0.07563977 0.11576289 -0.033186004
0000d0 d2 4e d0 3d 36 17 8f 3d 04 07 b9 3d c6 cc e4 bd
       0.10171284 0.06986849 0.09034541 -0.1117187
0000e0 8a 7d ff bd 04 9e a9 3d a0 85 5b 3c 18 b8 01 bd
       -0.124751166 0.08282092 0.013398558 -0.031669706
0000f0 24 26 06 bd f4 34 27 bd 82 f4 cd 3d 54 3d 40 bd
       -0.032751217 -0.040821984 0.10056402 -0.046933487
