backend/models/poker_ppo_agent_2.pth (torch, 31852 bytes, 8 tensors)

fc.0.weight f4 [64, 34]
-0.16779175 -0.016052842 -0.113849655 -0.042114675 0.023096919 0.06573056 0.13415779 -0.08264866
-0.12623686 -0.021078765 0.056255326 -0.069594696 -0.06269896 0.16591255 -0.023480192 -0.11864818
0.11990844 0.074698165 -0.14217645 -0.00012508035 0.08914192 0.094968244 0.024907604 0.09313418
0.036991656 -0.16175891 -0.12429673 0.0036289245 0.1150351 -0.16643813 -0.12807597 -0.06582104
0.16407557 0.15396814 -0.016214445 0.09081131 -0.11149187 0.13383438 0.04558488 -0.04279477
-0.101127416 0.06538704 0.0839385 0.09695219 0.13365342 0.1392305 -0.15743272 -0.11283375
-0.08529873 0.057340007 -0.059469327 -0.00450626 0.16291858 0.07790312 -0.116561495 -0.04822457
-0.13668202 -0.04225208 -0.116505705 -0.080226004 -0.06359473 0.11041981 -0.0017635135 -0.14967644
0.13734148 0.11246499 0.036579844 0.029233705 0.15299517 0.13418409 0.054621108 -0.024070125
0.021310726 0.03530174 0.09279408 0.10136517 0.041796308 0.017762613 -0.031945594 0.067032896
-0.042150073 0.087594666 -0.16819589 0.10999198 -0.06574336 -0.13470362 0.034990784 -0.010319087
0.084087774 0.034216657 -0.11649363 0.15492217 0.104891494 0.027488733 0.12188483 -0.022156453
-0.15374589 0.059590757 -0.13328946 0.15951546 -0.019251598 0.097637765 -0.08437545 -0.07273921
0.050747614 0.073409 0.13920271 0.07769831 0.097975984 0.13316971 -0.039291322 -0.11419613
-0.07552279 -0.09338284 0.10155989 0.035345804 -0.13757071 0.09660649 0.01600145 0.13860326
-0.13017951 0.13833918 0.040757447 0.17020367 0.048248004 0.16652443 0.094065055 -0.07237288
0.046319976 -0.07131919 -0.09601195 -0.12365809 -0.16406187 0.08070466 -0.05184442 -0.090583056
-0.015104938 0.02417064 0.06661704 -0.09602172 0.03866613 -0.122351944 -0.0900528 -0.16983157
0.10471831 0.074546285 0.021050822 0.0833279 -0.023012474 0.12564868 -0.010865183 -0.019238945
-0.14253718 0.11024703 0.06259004 0.1506397 0.09472524 0.11000468 0.15868081 0.006518677
0.048940882 0.1322306 -0.069094256 0.035094436 -0.022038028 0.14159451 0.0025350451 -0.099589474
-0.1710549 -0.08344956 -0.029870367 -0.08288621 0.118944004 -0.03696364 0.13653025 0.0154435085
0.077829 -0.041740652 0.03933239 -0.103455335 -0.106980875 0.006841805 -0.15220445 0.079281755
-0.0351687 -0.111807935 0.09247188 0.16592166 -0.040718798 -0.16772904 -0.105309606 0.021955013
-0.1695405 -0.069518805 0.05335422 0.05729212 0.121039025 0.076235026 0.14666083 -0.0711063
-0.06970561 -0.14324224 0.060345422 0.120841525 -0.06286891 -0.12674153 0.13868394 -0.051781848
-0.13092214 0.00031006834 0.014398068 0.1069804 -0.13866991 -0.08331173 0.15689996 -0.07680797
0.13440727 0.09635995 0.13032085 0.1493049 -0.03690048 0.10103122 0.02139881 0.05195145
0.08346124 -0.1304274 0.038862642 0.16198729 0.002775222 0.0719841 0.005585553 -0.10578829
0.15224214 -0.14528301 -0.09381603 0.08651935 0.13982403 0.06018273 -0.00014609109 0.05575197
0.108067386 -0.10546381 0.023848008 -0.086784035 0.15323474 0.11887388 -0.043749392 0.093432315
0.0038013707 -0.06820944 -0.09447121 0.008552343 0.011253469 -0.060856476 0.12937616 -0.14809532
00000000: 9ad1 2bbe 4081 83bc 022a e9bd 7080 2cbd
00000010: c035 bd3c be9d 863d a960 093e b343 a9bd
00000020: 3c44 01be 60ad acbc fc6b 663d aa87 8ebd
00000030: 5068 80bd fbe4 293e 8859 c0bc d1fd f2bd
00000040: 8e92 f53d 5afb 983d b496 11be 0028 03b9
00000050: 0a90 b63d b67e c23d 080b cc3c 22bd be3d
00000060: 9084 173d 21a4 25be 498f febd 40d3 6d3b
00000070: 8697 eb3d c26e 2abe 5926 03be 2ecd 86bd
00000080: 6d03 283e d3a9 1d3e 28d4 84bc 48fb b93d
00000090: d955 e4bd e10b 093e 36b7 3a3d 9249 2fbd
000000a0: e41b cfbd a4e9 853d f3e7 ab3d df8e c63d
000000b0: 71dc 083e 7192 0e3e 0b36 21be 6215 e7bd
000000c0: 1ab1 aebd 5bdd 6a3d 1c96 73bd 40a9 93bb
000000d0: 21d4 263e ac8b 9f3d cbb7 eebd 2087 45bd
000000e0: 5ff6 0bbe 8410 2dbd 8b9a eebd 884d a4bd
000000f0: f43d 82bd c823 e23d b225 e7ba c844 19be
00000100: 3fa3 0c3e 0b54 e63d bfd4 153d 867b ef3c
00000110: c4aa 1c3e 8e67 093e 62ba 5f3d b62e c5bc
00000120: d593 ae3c 8f98 103d d30a be3d 8b98 cf3d
00000130: 9b32 2b3d e682 913c 62d9 02bd 8b48 893d
00000140: 8ea5 2cbd d564 b33d 8b3b 2cbe 7a43 e13d
00000150: 74a4 86bd bfef 09be 7f52 0f3d 6311 29bc
00000160: 3636 ac3d c426 0c3d 3694 eebd eba3 1e3e
00000170: 5ad1 d63d 0d30 e13c c19e f93d 7381 b5bc
00000180: 906f 1dbe 7015 743d 087d 08be 0558 233e
00000190: 87b5 9dbc 4ff6 c73d 09cd acbd 4cf8 94bd
000001a0: bbdc 4f3d 7557 963d 288b 0e3e 4b20 9f3d
000001b0: a2a7 c83d a45d 083e f0ef 20bd a9df e9bd
000001c0: b1ab 9abd 813f bfbd a2fe cf3d c3c6 103d
000001d0: 56df 0cbe a0d9 c53d 7915 833c 03ee 0d3e
000001e0: c74d 05be c9a8 0d3e 48f1 263d df49 2e3e
000001f0: b39f 453d 6185 2a3e 2ea5 c03d 3c38 94bd
00000200: 04ba 3d3d cc0f 92bd eaa1 c4bd 7440 fdbd
00000210: d6ff 27be 7c48 a53d d15a 54bd 9c83 b9bd
00000220: b47a 77bc 8201 c63c 846e 883d 09a7 c4bd
00000230: 6060 1e3d a893 fabd 9a6d b8bd 54e8 2dbe
00000240: 8e76 d63d b9ab 983d c672 ac3c d1a7 aa3d
00000250: a884 bcbc 0caa 003e e103 32bc fe9a 9dbc
00000260: 44f5 11be 32c9 e13d 352f 803d 4b41 1a3e
00000270: 4eff c13d 224a e13d 397d 223e a09a d53b
00000280: 3c76 483d 7567 073e 4a81 8dbd 2fbf 0f3d
00000290: 1889 b4bc 27fe 103e 0023 263b 91f5 cbbd
000002a0: 0429 2fbe 9ae7 aabd b3b2 f4bc 3fc0 a9bd
000002b0: ea98 f33d 3067 17bd 96ce 0b3e c506 7d3c
000002c0: d064 9f3d 3ff8 2abd 001b 213d 64e0 d3bd
000002d0: ca18 dbbd 3831 e03b 7cdb 1bbe 795e a23d
000002e0: 0e0d 10bd 8ffb e4bd e661 bd3d 5ee7 293e
000002f0: c1c8 26bd 29c1 2bbe 90ac d7bd 00db b33c
00000300: 069c 2dbe e05f 8ebd f489 5a3d 24ab 6a3d
00000310: 4fe3 f73d 1c21 9c3d 422e 163e 2ea0 91bd
00000320: d1c1 8ebd 18ae 12be c32c 773d c37b f73d
00000330: 6ac1 80bd 88c8 01be 2a03 0e3e 3419 54bd
00000340: 7410 06be ab90 a239 e0e5 6b3c 8a18 db3d
00000350: 7cff 0dbe 579f aabd 62aa 203e 7f4d 9dbd
00000360: 0fa2 093e 5e58 c53d d472 053e 62e3 183e
00000370: f524 17bd 75e9 ce3d 8f4c af3c 0bcb 543d
00000380: baed aa3d c38e 05be 6f2e 1f3d ffdf 253e
00000390: 80e0 353b 666c 933d 0407 b73b 88a7 d8bd
000003a0: 5de5 1b3e 12c5 14be 9e22 c0bd 0f31 b13d
000003b0: 082e 0f3e 2b82 763d 0730 19b9 2d5c 643d
000003c0: 6f52 dd3d 69fd d7bd e65c c33c d4bb b1bd
000003d0: 91e9 1c3e 2674 f33d 9032 33bd 7159 bf3d
000003e0: 6b20 793b 64b1 8bbd 1f7a c1bd 201f 0c3c
000003f0: 7860 383c a444 79bd 2f7b 043e 4da6 17be

fc.0.bias f4 [64]
0.11298798 -0.051136423 0.007577685 -0.08439034 0.006158625 0.14367212 0.0878717 -0.07164727
-0.07015932 -0.11349994 0.118727066 -0.023685021 0.01582727 -0.09810568 0.112257525 -0.13081324
-0.025032297 0.10926669 0.15171383 -0.17563261 -0.086366296 0.012394814 0.13107347 -0.1302086
0.062273726 0.023894265 -0.05337713 0.009656504 -0.10123374 0.0075092474 -0.13752215 -0.054826744
0.036506776 0.13783444 -0.16561976 0.13441364 -0.045249876 0.042203683 0.037885994 -0.1715278
0.10823573 -0.03200279 0.05728087 -0.03158784 -0.0071274815 0.14031841 0.049253467 0.03714453
-0.096571885 0.11387005 0.07350133 -0.16632912 -0.16106215 -0.1642373 0.14286645 -0.07036137
0.015514139 -0.049376093 0.10012398 0.000101447105 0.06385531 -0.01393351 -0.03183523 0.050601747
00000000: 3e66 e73d 6d74 51bd 3b4e f83b d8d4 acbd
00000010: 4ace c93b c91e 133e 14f6 b33d cebb 92bd
00000020: b1af 8fbd a872 e8bd 2d27 f33d 1707 c2bc
00000030: 31a8 813c a1eb c8bd 46e7 e53d e8f3 05be
00000040: 8810 cdbc 37c7 df3d df5a 1b3e 09d9 33be
00000050: d0e0 b0bd 9e13 4b3c 2038 063e 6755 05be
00000060: bc12 7f3d e8bd c33c faa1 5abd 5036 1e3c
00000070: a353 cfbd 2210 f63b 9bd2 0cbe 0292 60bd
00000080: 2188 153d 7924 0d3e 3a98 29be bba3 093e
00000090: ef57 39bd c5dd 2c3d 582e 1b3d fca4 2fbe
000000a0: b2aa dd3d 5c15 03bd 589f 6a3d 4062 01bd
000000b0: a68d e9bb a1af 0f3e 01be 493d dd24 183d
000000c0: 7bc7 c5bd b334 e93d de87 963d 2e52 2abe
000000d0: 7aed 24be d32d 28be 954b 123e 9f19 90bd
000000e0: 042f 7e3c 963e 4abd cd0d cd3d 00c0 d438
000000f0: 93c6 823d 6049 64bc a865 02bd c743 4f3d

fc.2.weight f4 [64, 64]
0.07333939 0.084088154 0.03316941 0.05648188 0.10225852 -0.04007123 -0.007395364 0.00294817
-0.049864076 0.025154937 0.063008554 -0.1270779 0.003864374 -0.02049981 -0.04561299 -0.08320626
0.041557267 -0.0052147834 0.11667192 -0.06783134 0.07935566 0.023932835 -0.07701228 -0.076685585
0.11269312 0.056074083 -0.032050177 -0.079854995 -0.051751353 -0.08948059 0.023758637 0.032403428
0.046787236 -0.0063567986 -0.075362645 0.048014265 -0.111305 0.036101177 -0.1050131 0.08431646
-0.014166326 0.054743946 0.076658726 0.017977448 -0.09363644 -0.019319296 -0.08016421 -0.10757933
-0.009152241 0.0069131274 0.058684558 -0.054394618 0.017919738 -0.016046792 -0.08519517 -0.09594604
-0.10515628 -0.107700035 0.03796043 -0.09132847 0.086077005 0.06796129 0.014298052 0.029463869
0.072964326 -0.0065207365 -0.10628826 0.015736427 -0.057256427 -0.03259292 0.07000384 0.043932203
0.066680305 -0.039270718 0.0008657819 -0.09727871 -0.01637477 0.09288141 0.0079199225 0.010106931
-0.11422625 0.08753594 0.082123324 -0.051430043 -0.004405654 0.11874856 0.1033999 0.071610376
0.11397684 0.08886713 -0.035077795 0.06021355 0.021311603 -0.083269835 -0.028332978 0.09003336
-0.051998265 -0.09440318 0.08969628 -0.02815047 -0.026047423 0.0691574 -0.0387803 -0.06531472
-0.056456607 0.01782237 -0.071404174 -0.018443216 0.012490418 0.10133284 -0.092287906 -0.01847788
0.018972896 0.040181406 0.012049183 0.11266106 -0.12509608 -0.11040663 0.002251938 0.09748379
-0.10767781 -0.090835854 0.10231571 -0.085132584 -0.12045986 0.11527179 -0.101033665 0.07699885
0.05560632 0.08510327 -0.10529956 0.008239447 -0.08096457 -0.040027145 -0.12099133 0.033745367
-0.097144455 0.04096534 -0.09493466 -0.014495111 -0.044722427 -0.11705145 -0.115902394 -0.09386316
0.032926932 0.037145127 -0.07470977 0.06651968 0.036429673 -0.063121095 -0.011051122 0.036499273
0.10837974 -0.0030435324 -0.10306756 -0.088312685 0.07705241 0.010471482 -0.11902666 0.0765252
0.016669447 -0.09630171 -0.048591036 0.096092395 0.084691375 -0.031082075 -0.072853565 0.04968159
0.0648343 -0.028562918 0.06131293 -0.0064553567 0.063454434 0.009908199 0.029118478 0.0300877
-0.09958797 -0.03748624 0.092016205 0.03193389 -0.12368384 0.02924264 0.014962512 0.07059178
0.0714704 -0.010896004 0.06950624 0.08693585 -0.105120964 -0.06315538 0.071511894 0.023501774
0.122386545 0.001495026 0.015339965 -0.058390282 -0.103500545 0.101907894 -0.11335924 0.1000434
0.017237922 0.099319346 -0.10536194 -0.021361033 -0.069860205 0.0014567673 -0.02869992 -0.02581155
0.11626299 0.12560359 -0.08660093 -0.11276849 0.045015134 -0.0053986576 0.05939104 0.028691038
0.016717039 0.08968732 0.089010105 -0.0017786622 0.09320739 -0.104486376 -0.082565635 0.046570607
-0.008116654 -0.018340735 -0.05523429 0.05628096 0.11159556 -0.008769125 -0.0623952 0.08635208
-0.052765436 0.08622107 -0.018522799 -0.10464947 0.10292119 0.044493794 -0.09996004 -0.03151828
-0.038100798 0.1256607 -0.08181004 -0.079371125 0.10759429 -0.07008159 -0.10171221 0.07442777
-0.112279534 0.051629998 -0.041321885 0.06160347 0.041343417 -0.10193342 0.044871707 0.021830078
00000000: f632 963d 6936 ac3d a6dc 073d 8b59 673d
00000010: ea6c d13d bb21 24bd cf54 f2bb 1636 413b
00000020: 463e 4cbd ba11 ce3c a10a 813d b620 02be
00000030: 7041 7d3b 38ef a7bc b0d4 3abd 0b68 aabd
00000040: f437 2a3d c6e0 aabb b0f1 ee3d 28eb 8abd
00000050: 3885 a23d cb0e c43c 9db8 9dbd 550d 9dbd
00000060: a7cb e63d f0ad 653d 0c47 03bd 048b a3bd
00000070: 3af9 53bd 9941 b7bd 79a1 c23c 75b9 043d
00000080: f9a3 3f3d b14c d0bb bb57 9abd 9baa 443d
00000090: e0f3 e3bd d4de 133d 1c11 d7bd 1cae ac3d
000000a0: e119 68bc 303b 603d 40ff 9c3d 7145 933c
000000b0: 76c4 bfbd 8043 9ebc 222d a4bd 8d52 dcbd
000000c0: 48f3 15bc 8487 e23b 385f 703d e4cc 5ebd
000000d0: 6acc 923c 9074 83bc ce7a aebd 5b7f c4bd
000000e0: 2d5c d7bd d691 dcbd 657c 1b3d 6c0a bbbd
000000f0: 2449 b03d 4a2f 8b3d 6042 6a3c 365e f13c
00000100: 526e 953d e7ab d5bb a9ad d9bd aee9 803c
00000110: b785 6abd 2780 05bd 2c5e 8f3d 41f2 333d
00000120: af8f 883d 55da 20bd a4f5 623a 0f3a c7bd
00000130: 6224 86bc 9c38 be3d 90c2 013c 8b97 253c
00000140: 74ef e9bd 0b46 b33d 4630 a83d 4fa8 52bd
00000150: 4e5d 90bb 7232 f33d 54c3 d33d 76a8 923d
00000160: b16c e93d f8ff b53d bcad 0fbd 7ca2 763d
00000170: ac95 ae3c 6089 aabd 901a e8bc 6963 b83d
00000180: 22fc 54bd 7456 c1bd afb2 b73d d19b e6bc
00000190: 6861 d5bc 65a2 8d3d 18d8 1ebd b9c3 85bd
000001a0: 0b3f 67bd 3800 923c 5a3c 92bd 3a16 97bc
000001b0: 9ca4 4c3c 9887 cf3d 7101 bdbd ec5e 97bc
000001c0: 0c6d 9b3c 4295 243d f069 453c d8ba e63d
000001d0: 3019 00be df1c e2bd 4095 133b 95a5 c73d
000001e0: 2f86 dcbd 2608 babd e68a d13d fe59 aebd
000001f0: a9b3 f6bd 9e13 ec3d bdea cebd 93b1 9d3d
00000200: 74c3 633d a04a ae3d 4ca7 d7bd bffe 063c
00000210: c1d0 a5bd 81f3 23bd 4dca f7bd 9538 0a3d
00000220: acf3 c6bd 46cb 273d 1a6d c2bd e77c 6dbc
00000230: dd2e 37bd acb8 efbd 3c5e edbd 543b c0bd
00000240: 64de 063d 7d25 183d 7001 99bd 783b 883d
00000250: 4837 153d a245 81bd c40f 35bc 4380 153d
00000260: 32f6 dd3d 0076 47bb 1615 d3bd 48dd b4bd
00000270: a7cd 9d3d 9490 2b3c 40c4 f3bd 3eb9 9c3d
00000280: 5d8e 883c d539 c5bd 6507 47bd 17cc c43d
00000290: ac72 ad3d d69f febc 4034 95bd ec7e 4b3d
000002a0: d8c7 843d c8fc e9bc 4423 7b3d 7587 d3bb
000002b0: 66f4 813d 0056 223c e089 ee3c 7b7a f63c
000002c0: c7f4 cbbd 2c8b 19bd fe72 bc3d 1ccd 023d
000002d0: f44d fdbd 438e ef3c 5325 753c 6c92 903d
000002e0: 135f 923d 2785 32bc 4a59 8e3d 6c0b b23d
000002f0: a949 d7bd 9c57 81bd d474 923d cb86 c03c
00000300: cca5 fa3d c0f4 c33a 7a54 7b3c a62a 6fbd
00000310: 18f8 d3bd 16b5 d03d e428 e8bd 8ee3 cc3d
00000320: 8b36 8d3c f167 cb3d 00c8 d7bd 55fd aebc
00000330: de12 8fbd 00f1 be3a 181c ebbc be72 d3bc
00000340: 4a1b ee3d 3a9e 003e d45b b1bd 2bf3 e6bd
00000350: ca61 383d 39e7 b0bb 0544 733d 7809 eb3c
00000360: 2cf2 883c fcad b73d ee4a b63d 0022 e9ba
00000370: 84e3 be3d f4fc d5bd 2c18 a9bd d2c0 3e3d
00000380: b7fb 04bc 4f3f 96bc 5a3d 62bd dd86 663d
00000390: 378c e43d 60ac 0fbc 1c92 7fbd 5cd9 b03d
000003a0: 9220 58bd ac94 b03d 20bd 97bc 7652 d6bd
000003b0: 58c8 d23d 203f 363d d9b7 ccbd 5019 01bd
000003c0: 950f 1cbd 33ad 003e 068c a7bd 548d a2bd
000003d0: 655a dc3d f086 8fbd 7e4e d0bd 966d 983d
000003e0: d0f2 e5bd fa79 533d 2341 29bd ec53 7c3d
000003f0: b757 293d 78c2 d0bd 65cb 373d fed4 b23c

fc.2.bias f4 [64]
-0.12324254 -0.097289674 -0.031193536 -0.059422635 -0.033604726 0.049040556 -0.11674799 -0.030519446
-0.09628919 -0.08308801 0.032849774 0.056626685 -0.013394105 -0.002935309 -0.11620667 0.122194156
-0.046675548 0.12266664 -0.05199575 0.0066424897 0.104814224 -0.0824146 -0.12077728 -0.007117048
0.008390292 -0.07153942 0.11821978 0.0029860542 0.077266335 -0.11388838 0.016096434 -0.07131254
-0.011985943 -0.08237292 0.083677 -0.096407615 -0.12176731 0.006599367 0.060311455 -0.11261873
-0.04193224 0.09628319 -0.102810666 0.0027052506 0.111700386 -0.061502323 -0.039611276 0.07208672
-0.0059094927 0.10797595 0.035658896 -0.05761166 0.111772776 -0.00705668 -0.1095099 0.05027351
-0.032004982 -0.0334336 0.0020793078 -0.023690123 0.12706332 -0.011656035 0.056070846 -0.06590432
00000000: 9666 fcbd cf3f c7bd 9689 ffbc 2665 73bd
00000010: 1ca5 09bd c0de 483d 9219 efbd eb03 fabc
00000020: 4433 c5bd 0c2a aabd 7c8d 063d 62f1 673d
00000030: f372 5bbc 505e 40bb c3fd edbd ee40 fa3d
00000040: dc2e 3fbd a638 fb3d 7ff9 54bd 3ea9 d93b
00000050: d7a8 d63d fcc8 a8bd 145a f7bd 2036 e9bb
00000060: 6f77 093c 4283 92bd 361d f23d adb1 433b
00000070: d03d 9e3d 503e e9bd abdc 833c 4f0c 92bd
00000080: b060 44bc 22b3 a8bd d95e ab3d 5b71 c5bd
00000090: 2461 f9bd 813f d83b 2509 773d a6a4 e6bd
000000a0: 24c1 2bbd 1f30 c53d 668e d2bd 934a 313b
000000b0: 2cc3 e43d dce9 7bbd 6f3f 22bd 34a2 933d
000000c0: 6ba4 c1bb 7f22 dd3d 100f 123d 34fa 6bbd
000000d0: 20e9 e43d b93b e7bb ba46 e0bd 99eb 4d3d
000000e0: a817 03bd acf1 08bd ff44 083b ca11 c2bc
000000f0: e31c 023e f4f8 3ebc 8baa 653d d8f8 86bd

policy.weight f4 [4, 64]
0.07678222 0.0754097 0.0803443 0.06896433 0.043321386 0.037666377 0.061326783 0.003532759
0.006322161 0.017312992 0.02899012 -0.11906269 -0.005741258 -0.103163145 -0.08879534 0.045230955
-0.03827612 -0.03621185 0.057272024 -0.1096675 0.056015953 0.052982032 0.09973657 -0.020218134
0.012419432 -0.07302949 -0.012515131 0.11117577 -0.0665845 -0.060094327 0.03274004 -0.03197815
-0.12269795 0.087931395 0.003131101 0.054585006 -0.071065485 -0.04777597 -0.077606976 0.0074953735
0.0043348125 -0.04236375 0.07361114 0.09315416 0.10845088 -0.122642756 0.061097085 -0.1061483
-0.10543772 -0.0329239 0.089509904 -0.100716874 0.027224407 0.036695004 0.10106197 0.111828335
0.098471984 0.041124087 0.11942615 -0.092407115 -0.080086954 -0.0069235587 -0.044018786 -0.09150702
-0.10335988 0.055951715 0.11833445 -0.025126912 0.071769655 -0.05297938 -0.08380756 0.05738073
0.059644483 -0.11017926 -0.041511893 0.07678731 -0.0030752276 0.12435761 0.041670855 0.0051190704
0.0028244555 -0.048793744 0.015455442 0.051950097 0.09792378 0.094778776 -0.08925483 0.028158396
-0.044395283 0.089332744 -0.11336454 -0.07152589 0.09694049 -0.05497831 0.07202394 0.107260644
-0.0006210357 -0.07531387 -0.091006026 0.014190457 -0.06077531 0.061636865 0.06298869 0.07456207
0.03554152 -0.106677085 0.11118741 0.10250481 0.04209903 0.06213592 0.024019904 -0.09039652
0.07797443 0.04502625 0.12253654 0.07337553 0.012504373 -0.0655184 0.11332074 -0.12417401
0.015170358 -0.09278897 0.01966324 -0.079960875 -0.045798857 0.09091701 -0.12007735 -0.012077317
-0.054472856 -0.011233253 -0.08835722 -0.05017321 -0.00524728 0.021030728 -0.057561852 0.02678504
-0.00962299 -0.090244345 0.065024555 0.06421038 0.077257946 0.09160978 0.07610035 -0.0053845644
0.055188 0.09256438 -0.0016400857 0.04587637 -0.012446779 -0.058169976 -0.050864026 0.030288637
0.010837037 0.10324919 -0.064281985 0.12070662 -0.06760307 -0.10632445 0.08919696 0.06340766
0.08951594 -0.05922283 -0.020002605 -0.044888083 -0.11592518 -0.040496774 0.09782538 -0.064123854
0.029745126 0.08896882 -0.014743358 -0.11401195 0.09825046 0.03400372 -0.023104073 -0.10285403
0.12039278 -0.03385649 0.09649217 -0.0025440117 -0.045709666 -0.06700987 0.045337424 0.121867046
-0.12107314 -0.08813017 -0.055822406 0.091372766 -0.081836864 0.11994518 -0.025392069 -0.11374298
-0.022856249 0.1265437 0.069048144 0.117095746 0.03263013 0.07151043 0.08739228 -0.0036980268
-0.025766976 0.039839983 0.05020961 -0.092834525 -0.05828412 0.11616768 0.008243304 0.076754674
-0.065199256 -0.113157436 0.00062802713 -0.10981216 -0.028487697 0.08491789 -0.09200275 -0.051018268
0.094171435 -0.047348868 -0.07649693 0.05913785 0.029178038 -0.09913194 -0.08187484 0.026670527
-0.10991052 -0.0924467 -0.10077746 0.1086549 0.029600114 0.008519442 -0.054965913 0.09193438
0.07230039 -0.10318006 -0.052744403 -0.09768023 -0.02420913 -0.096119255 0.1089302 0.0415404
0.0017840114 -0.05225526 -0.046375573 0.12103974 0.05621939 0.124943 -0.12114522 -0.055421807
0.12504886 0.06563115 -0.0491553 0.04765402 0.014268102 0.05028031 -0.047231793 -0.057370335
00000000: ff3f 9d3d 6770 9a3d 8d8b a43d 2c3d 8d3d
00000010: c471 313d 0f48 1a3d cb31 7b3d dc85 673b
00000020: 212a cf3b fad3 8d3c b07c ed3c 24d7 f3bd
00000030: 2a21 bcbb 3347 d3bd 55da b5bd 1844 393d
00000040: 6cc7 1cbd e052 14bd 1296 6a3d 5b99 e0bd
00000050: fc70 653d b003 593d b042 cc3d 80a0 a5bc
00000060: e07a 4b3c 7c90 95bd 440c 4dbc 1fb0 e33d
00000070: 745d 88bd 7825 76bd 6c1a 063d 85fb 02bd
00000080: 1049 fbbd 6015 b43d 2833 4d3b 8794 5f3d
00000090: c88a 91bd bcb0 43bd 68f0 9ebd c09b f53b
000000a0: 0b0b 8e3b 9d85 2dbd 70c1 963d 9cc7 be3d
000000b0: 7f1b de3d 202c fbbd f040 7a3d 4864 d9bd
000000c0: bbef d7bd 36db 06bd f850 b73d a644 cebd
000000d0: b805 df3c 804d 163d 94f9 ce3d 4106 e53d
000000e0: aeab c93d bb71 283d b395 f43d f13f bdbd
000000f0: a104 a4bd 05df e2bb 0b4d 34bd 0868 bbbd
00000100: 58ae d3bd a02d 653d 5559 f23d f4d6 cdbc
00000110: f8fb 923d e800 59bd 4ca3 abbd 0e08 6b3d
00000120: c64d 743d aaa5 e1bd 6008 2abd aa42 9d3d
00000130: c289 49bb 34af fe3d 0faf 2a3d e0bd a73b
00000140: 801a 393b f3db 47bd d238 7d3c a0c9 543d
00000150: 438c c83d 601b c23d 3ccb b6bd 70ac e63c
00000160: d4d7 35bd 16f4 b63d ab2b e8bd 2a7c 92bd
00000170: bc88 c63d f030 61bd 4a81 933d 78ab db3d
00000180: 00cd 22ba 293e 9abd 5e61 babd 177f 683c
00000190: 88ef 78bd f076 7c3d 3700 813d 00b4 983d
000001a0: fc93 113d 8479 dabd 3ab6 e33d 0bee d13d
000001b0: 0870 2c3d 3c82 7e3d 64c5 c43c d021 b9bd
000001c0: 0fb1 9f3d 726d 383d 70f4 fa3d e945 963d
000001d0: 24df 4c3c 832e 86bd b414 e83d f14e febd
000001e0: 188d 783c 2508 bebd ce14 a13c 87c2 a3bd
000001f0: 9597 3bbd b332 ba3d 1deb f5bd f0df 45bc
00000200: ee1e 5fbd ae0b 38bc a1f4 b4bd 6d82 4dbd
00000210: 60f1 abbb a248 ac3c fac5 6bbd 4d6c db3c
00000220: bfa9 1dbc 07d2 b8bd 982b 853d bb80 833d
00000230: 6a39 9e3d e99d bb3d 80da 9b3d 0071 b0bb
00000240: d00c 623d 6592 bd3d 25f8 d6ba dce8 3b3d
00000250: 93ed 4bbc a443 6ebd cc56 50bd e01f f83c
00000260: d48d 313c 5074 d33d 46a6 83bd 0835 f73d
00000270: 7a73 8abd a2c0 d9bd e5ac b63d e0db 813d
00000280: 2254 b73d a393 72bd 81dc a3bc 91dc 37bd
00000290: 2e6a edbd f2df 25bd ac58 c83d 5e53 83bd
000002a0: 0dac f33c 4935 b63d 208e 71bc 197f e9bd
000002b0: 8a37 c93d 7c47 0b3d c144 bdbc 22a5 d2bd
000002c0: 7d90 f63d 1aad 0abd b09d c53d 6fb9 26bb
000002d0: 0f3a 3bbd 793c 89bd bcb3 393d 6e95 f93d
000002e0: 32f5 f7bd 977d b4bd 09a6 64bd a521 bb3d
000002f0: 169a a7bd d2a5 f53d 0703 d0bc 14f2 e8bd
00000300: 073d bbbc ac94 013e 1d69 8d3d e5cf ef3d
00000310: 2ca7 053d 0f74 923d b9fa b23d 985a 72bb
00000320: 4415 d3bc 402f 233d 98a8 4d3d 0720 bebd
00000330: 54bb 6ebd 52e9 ed3d ec0e 073c 8e31 9d3d
00000340: 3087 85bd 16bf e7bd 30a2 243a 33e5 e0bd
00000350: 085f e9bc 6ee9 ad3d f06b bcbd 88f8 50bd
00000360: f4dc c03d e3f0 41bd 6caa 9cbd 883a 723d
00000370: c806 ef3c b005 cbbd ffad a7bd 267c da3c
00000380: c418 e1bd b254 bdbd 6a64 cebd 7686 de3d
00000390: f07b f23c 2195 0b3c f023 61bd 1848 bc3d
000003a0: 3a12 943d 1150 d3bd 840a 58bd 930c c8bd
000003b0: 3a52 c6bc 2cda c4bd cc16 df3d 4426 2a3d
000003c0: 7dd5 e93a 9d09 56bd 50f4 3dbd afe3 f73d
000003d0: 4e46 663d 1ee2 ff3d fc1a f8bd fa01 63bd
000003e0: cf0c 003e a069 863d 1157 49bd dd30 433d
000003f0: c2c4 693c baf2 4d3d 2076 41bd 28fd 6abd

policy.bias f4 [4]
-0.07438884 -0.03405192 0.08339982 -0.0483964
00000000: 2d59 98bd 077a 0bbd 86cd aa3d 4e3b 46bd

value.weight f4 [1, 64]
0.023440838 0.039459128 0.036594603 -0.035811163 -0.074873835 0.046008904 0.04709972 -0.11029942
0.11077175 0.024034938 -0.044561386 0.05236366 0.04717236 -0.067227155 -0.07995904 -0.008293167
0.04703045 -0.0156246275 -0.095339656 -0.036032554 0.027024556 -0.08847058 0.08844802 0.048610315
0.0056443196 -0.075900346 -0.05564354 0.08416676 0.02301167 0.08846037 -0.008432298 -0.0852821
-0.021403164 0.018749312 -0.021104408 0.012174628 0.027809694 0.116335884 0.0026250205 -0.032501787
0.1109552 0.096160695 0.066824466 -0.06137277 -0.05506544 0.0452234 -0.090908594 0.026046365
0.055438608 -0.058797866 0.08792481 0.10289096 0.056950614 0.011652188 -0.029879257 -0.11828454
-0.09553448 -0.11503385 0.041791398 0.06545368 -0.023414684 -0.080293685 -0.03396698 0.12141742
00000000: 0007 c03c e59f 213d 39e4 153d baae 12bd
00000010: 7457 99bd d573 3c3d a3eb 403d aae4 e1bd
00000020: 4ddc e23d ebe4 c43c 0086 36bd 477b 563d
00000030: ce37 413d 64ae 89bd 91c1 a3bd 10e0 07bc
00000040: 00a3 403d 70fe 7fbc 7041 c3bd df96 13bd
00000050: 9a62 dd3c 1030 b5bd 3c24 b53d 9c1b 473d
00000060: fcf3 b83b a471 9bbd 7bea 63bd 9f5f ac3d
00000070: f882 bc3c b62a b53d 9f27 0abc 62a8 aebd
00000080: b055 afbc 2898 993c 27e3 acbc 1778 473c
00000090: 28d1 e33c 8241 ee3d 8908 2c3b 9820 05bd
000000a0: 7b3c e33d e6ef c43d 44db 883d 0462 7bbd
000000b0: 4c8c 61bd 2c3c 393d 492e babd 305f d53c
000000c0: 9813 633d 08d6 70bd ec11 b43d 7fb8 d23d
000000d0: 0c45 693d d2e8 3e3c 58c5 f4bc 2a3f f2bd
000000e0: 95a7 c3bd de96 ebbd 752d 2b3d 940c 863d
000000f0: 27d0 bfbc 0471 a4bd f620 0bbd b2a9 f83d

raise_mean.weight f4 [1, 64]
0.10315868 -0.009980187 0.0862336 0.11531514 0.10738596 -0.00083324313 -0.0940146 -0.0074533075
0.08679594 0.026982978 -0.082849756 0.084837645 0.06689206 0.0143778175 0.07908474 0.034621954
-0.034963816 -0.0013856441 -0.10852373 -0.030461684 -0.09450294 -0.094442084 0.026555017 0.07114069
-0.05685635 -0.070339024 -0.11377916 0.11110103 0.066031426 0.12037143 0.031942323 0.05743295
0.09163025 0.032020137 -0.120462954 0.013876364 0.061352924 -0.03342174 -0.009169027 0.061115146
0.0745247 -0.050037995 -0.08147 0.12470937 0.091507405 -0.0604807 -0.10511485 0.06079054
-0.022067651 -0.077599734 -0.052491248 0.095710605 -0.09334457 0.026569039 0.05678244 -0.043117136
0.049127772 -0.11264238 0.1223966 -0.07637483 -0.12379561 -0.02445133 -0.07792689 0.017304257
00000000: dc44 d33d f083 23bc 3e9b b03d 582a ec3d
00000010: 2ced db3d 006e 5aba ba8a c0bd e03a f4bb
00000020: 12c2 b13d 680b dd3c 22ad a9bd 5cbf ad3d
00000030: b4fe 883d f090 6b3c 2ef7 a13d c0cf 0d3d
00000040: 3836 0fbd 809e b5ba b041 debd c88a f9bc
00000050: c28a c1bd da6a c1bd e889 d93c 36b2 913d
00000060: 34e2 68bd e80d 90bd 0c05 e9bd f088 e33d
00000070: 7c3b 873d 4c85 f63d f4d5 023d d03e 6b3d
00000080: a4a8 bb3d 8c27 033d 48b5 f6bd b059 633c
00000090: 344d 7b3d 3ce5 08bd b039 16bc e053 7a3d
000000a0: 68a0 983d a4f4 4cbd bed9 a6bd a067 ff3d
000000b0: 3c68 bb3d 9cba 77bd 7446 d7bd 80ff 783d
000000c0: 38c7 b4bc 9cec 9ebd 1001 57bd ec03 c43d
000000d0: 702b bfbd 50a7 d93c b494 683d 989b 30bd
000000e0: 343a 493d 0cb1 e6bd 12ab fa3d 686a 9cbd
000000f0: 8e88 fdbd 284e c8bc 2298 9fbd a8c1 8d3c
