backend/models/poker_ppo_agent_4.pth (torch, 31852 bytes, 8 tensors)

fc.0.weight f4 [64, 34]
0	0x3deb46b2	0.114880934
1	0x3e204e50	0.15654874
2	0x3cb7703c	0.022392385
3	0x3e18f7ea	0.14938322
4	0x3c1b7881	0.00948918
5	0x3d300c73	0.042980623
6	0xbdf31884	-0.1186991
7	0xbcf82a23	-0.03029353
8	0xbc6d1a0b	-0.014471541
9	0xbe016cbb	-0.12639134
10	0x3d5db0df	0.054123756
11	0xbd47559c	-0.048665628
12	0x3e168bd5	0.14701779
13	0x3c736619	0.014855885
14	0xbd3c33d2	-0.045947857
15	0xbd8ccd0c	-0.06875047
16	0x3e205255	0.15656407
17	0xbdd1e071	-0.10247887
18	0xbdfe93bd	-0.124305226
19	0x3bcaf8ec	0.0061942246
20	0xbdf83aa8	-0.12120563
21	0x3d5a0e7c	0.05323647
22	0x3cf265ca	0.029589552
23	0x3db29e8e	0.08721648
24	0xbbf64960	-0.007516071
25	0xbdf297c6	-0.11845355
26	0x3de82a8f	0.113362424
27	0xbdcd7b5a	-0.10033293
28	0x3dce6a7c	0.10078904
29	0x3e010652	0.12600067
30	0xbd9f1ced	-0.07769189
31	0x3db8445a	0.08997412
32	0xbb9b20a4	-0.0047341157
33	0x3db75e0b	0.08953484
34	0x3de777d7	0.113021545
35	0x3d7c25ae	0.06155937
36	0xbda3f77b	-0.080061875
37	0xbd9946d6	-0.07484214
38	0x3d93cf8d	0.072173215
39	0x3e1b7f11	0.1518519
40	0xbdf90121	-0.121584184
41	0x3dc5fb31	0.096670516
42	0xbda776ac	-0.08176932
43	0x3e177afa	0.14793006
44	0xbad510cf	-0.001625562
45	0xbd27e428	-0.04098907
46	0x3d7351d9	0.059404228
47	0xbdd2377c	-0.10264489
48	0x3cfa58f4	0.030559994
49	0xbdb4de5d	-0.08831475
50	0xbe1e5135	-0.15460666
51	0x3dda680a	0.10664375
52	0x3e2310c8	0.1592437
53	0xbca94037	-0.020660503
54	0x3c997140	0.01873076
55	0x3dd9fd72	0.10644044
56	0xbbfcec0c	-0.0077185687
57	0x3d38207a	0.044952847
58	0x3e2410f7	0.16022097
59	0x3d1720f8	0.036896676
60	0x3d988029	0.074463196
61	0x3d2cfd3b	0.042233687
62	0xbd449980	-0.04799795
63	0x3c9969f6	0.018727284
64	0x3d7dcc8c	0.06196265
65	0xbd339b64	-0.043849364
66	0xbcd81681	-0.026377918
67	0x3dae285b	0.08503791
68	0x3e1b00d2	0.15137032
69	0x3c87ff4b	0.016601225
70	0x3cf3099c	0.029667668
71	0x3d5b7e27	0.053587105
72	0xbc8ecd2d	-0.01743182
73	0x3e051702	0.12997058
74	0x3d923c1a	0.0714037
75	0x3cd1e462	0.025621597
76	0x3daab482	0.083352104
77	0x3e094592	0.13405445
78	0x3a75d406	0.0009377602
79	0x3e005ef3	0.1253622
80	0x3d87d728	0.06632835
81	0xbd6f988a	-0.058495082
82	0x3e2174b0	0.15767169
83	0xbd88831e	-0.066656336
84	0xbe1f08d9	-0.15530719
85	0x3d31d3d2	0.0434149
86	0xbe2b013a	-0.16699687
87	0xbd7c1ef7	-0.061552968
88	0xbdf8a4aa	-0.12140782
89	0x3d354a64	0.044260398
90	0x3d5cbd14	0.053891256
91	0x3d9bdf8f	0.07611
92	0x3ba6b380	0.005087316
93	0xbd78a9b8	-0.06070873
94	0x3e0a181a	0.13485757
95	0xbd1f98c4	-0.038964048
96	0xbde0ce91	-0.109768994
97	0xbd3c5243	-0.04597689
98	0x3e1ba9ac	0.15201443
99	0xbdd94618	-0.106090724
100	0x3e184c93	0.14872961
101	0xbd750449	-0.05981854
102	0xbe22727e	-0.15863988
103	0x3cf79268	0.03022118
104	0x3c7fe8a0	0.015619427
105	0xbd77aaf0	-0.060465753
106	0xbddddfc3	-0.10833695
107	0xbc103170	-0.008800849
108	0xbddf72de	-0.10910581
109	0xbd5b7b3a	-0.053584315
110	0x3d922a76	0.07137005
111	0xbde9e75a	-0.1142108
112	0x3d111498	0.03542003
113	0x3df99fb6	0.121886656
114	0x3c1ff010	0.009761825
115	0xbdff97e6	-0.12480144
116	0xbd9c05a8	-0.07618266
117	0x3d2471c8	0.040147573
118	0x3dd45a06	0.10368733
119	0xbc2a96d0	-0.010411933
120	0xbe022a1b	-0.12711374
121	0x3df6eb22	0.12056567
122	0xbd6fa7e2	-0.058509715
123	0x3d30af3c	0.043135867
124	0xbcf44058	-0.029815838
125	0x3c27a120	0.010231286
126	0xbe0163fa	-0.12635794
127	0x3dcbac42	0.09944965
128	0x3b38b140	0.002818182
129	0x3e2d9847	0.1695262
130	0x3e2f0f0d	0.17095585
131	0xbe202403	-0.15638737
132	0x3de7fa76	0.113270685
133	0x3d52f184	0.05149986
134	0x3b742240	0.003725186
135	0xbe1b4b82	-0.15165523
136	0x3d21776d	0.039420534
137	0xbdd753db	-0.10514041
138	0x3dd0b38e	0.10190497
139	0x3df7776d	0.120833255
140	0xbd9be062	-0.07611157
141	0xbd8a5fe9	-0.06756575
142	0x3d4d139f	0.05006754
143	0xbe00cce1	-0.12578155
144	0xbe23c16e	-0.15991756
145	0x3ceb7254	0.02874104
146	0x3e2df309	0.16987242
147	0xbd886a0e	-0.06660853
148	0xbcfd560d	-0.030924821
149	0xbe1af39a	-0.15131989
150	0xbdfd5826	-0.123703286
151	0x3c90ec1a	0.017690707
152	0x3da1c1ac	0.07898268
153	0xbda60bea	-0.08107741
154	0xbc988cda	-0.01862185
155	0xbd33bfa7	-0.043883946
156	0x3ce68230	0.02813825
157	0x3dde95ba	0.10868402
158	0x3dbf0450	0.093269944
159	0x3e109033	0.14117508
160	0xbc75a9e0	-0.014994115
161	0xbca7a360	-0.020463645
162	0xbde4c0be	-0.11169575
163	0x3e0482dc	0.12940544
164	0xbd097d3b	-0.033566695
165	0x3dff597e	0.12468241
166	0xbdbb123c	-0.09134337
167	0xbda7e89c	-0.081986636
168	0x3d6e62f6	0.058199845
169	0x3dfa628e	0.12225829
170	0x3e1b704a	0.15179554
171	0x3e2cc1f4	0.16870862
172	0xb9abc598	-0.0003276288
173	0xbd464dc6	-0.048414014
174	0xbd05b0cc	-0.03263931
175	0x3c2f7702	0.010709526
176	0xbbc4927e	-0.0059989085
177	0x3c594a3e	0.01326233
178	0xbd951ff1	-0.07281483
179	0x3cea14f4	0.028574444
180	0xbded6ef0	-0.11593425
181	0xbdb91461	-0.0903709
182	0xbdcecb95	-0.10097424
183	0x3e223240	0.15839481
184	0xbd5358ad	-0.05159824
185	0x3e080973	0.13284855
186	0xbdfedc78	-0.12444395
187	0x3da4f396	0.08054273
188	0xbcf56226	-0.029954027
189	0x3dacdac8	0.08440167
190	0x3d5424f8	0.05179307
191	0xbe29e055	-0.16589482
192	0x3dd38163	0.10327413
193	0xbdd58733	-0.10426178
194	0x3e1472af	0.14496873
195	0xbe207e84	-0.15673262
196	0xbe242f9f	-0.16033791
197	0xbdb1fe48	-0.086910784
198	0x3e1ea543	0.1549273
199	0x3e13df5d	0.14440675
200	0xbdde1525	-0.10843877
201	0x3cb09e48	0.02155985
202	0x3cc19497	0.023630423
203	0x3dd28ee9	0.10281164
204	0xbd12e2c0	-0.035860777
205	0x3d3b0d69	0.045667086
206	0xbe11a58e	-0.1422331
207	0x3d41a5c3	0.047277223
208	0x3dcfc93f	0.101458065
209	0xbd166bf8	-0.03672406
210	0x3daa346e	0.083107814
211	0xbe254d33	-0.1614273
212	0x3dd37065	0.10324172
213	0xbe128586	-0.14308748
214	0xbd049c14	-0.03237541
215	0x3becb680	0.007223904
216	0x3d4df59c	0.05028306
217	0x3d9d5339	0.07681889
218	0xbd8f222c	-0.0698894
219	0xbc76761d	-0.015042809
220	0xbd5b28dc	-0.053505763
221	0xbddcebab	-0.107871376
222	0x3d5ea0bb	0.054352503
223	0xbd6d433d	-0.05792545
224	0x3d7394ec	0.059468195
225	0x3e2834d9	0.1642641
226	0xbe2541b4	-0.16138345
227	0x3d7cfc25	0.0617639
228	0x3da2d6fa	0.0795116
229	0x3dc3f0d2	0.09567417
230	0xbcc957b9	-0.024577962
231	0xbdb8bdaa	-0.090205505
232	0x3c999def	0.018752066
233	0x3dcbb006	0.09945683
234	0x3e0207db	0.12698309
235	0xbdbeb28d	-0.093113996
236	0xbe2ed47a	-0.17073241
237	0x3b9ab9c1	0.0047218506
238	0xbe24c810	-0.16091943
239	0x3de3aaf6	0.111165926
240	0x3c708ff7	0.014682761
241	0x3d3dca2c	0.046335384
242	0x3e277e17	0.16356693
243	0x3d7dcb47	0.06196144
244	0x3db6312d	0.08896098
245	0xbd028842	-0.031868227
246	0xbd95ab66	-0.07308082
247	0xbd04c3fb	-0.032413464
248	0x3d2918f6	0.04128357
249	0xbc7757ab	-0.015096585
250	0xbdc0de2c	-0.09417376
251	0x3c963a61	0.018338384
252	0xbe098190	-0.1342833
253	0x3e0926b5	0.13393672
254	0xbe208e4d	-0.15679283
255	0xbdb2bfd7	-0.08727997

fc.0.bias f4 [64]
0	0xbe22af32	-0.15887144
1	0xbb800537	-0.0039068717
2	0xbd7639b3	-0.06011362
3	0x3db7f93a	0.08983083
4	0x3e1c76b0	0.1527965
5	0xbca77a19	-0.020443963
6	0xbe244188	-0.16040623
7	0x3e2eef9b	0.1708359
8	0x3e20a77c	0.1568889
9	0xbe1dde20	-0.15416765
10	0xbd522736	-0.051306926
11	0xbdada7ac	-0.084792465
12	0x3d0cee5f	0.034407016
13	0x3e131dfb	0.14366905
14	0x3d1bec30	0.038067043
15	0xbdbb53f3	-0.091468714
16	0x3cce3599	0.025172042
17	0xbdc8767e	-0.097882256
18	0x3d6229a1	0.05521548
19	0x3d67e020	0.056610227
20	0x3d3b7178	0.04576251
21	0xbdd106ef	-0.102064006
22	0xbd16edd9	-0.036847923
23	0x3c834e7f	0.01602864
24	0xbba4a4e2	-0.0050245384
25	0x3da88fc5	0.08230547
26	0xbbf0f701	-0.007353664
27	0x3c932ccf	0.017965702
28	0x3deefcfd	0.116693474
29	0xbe298091	-0.1655295
30	0xbdbd1493	-0.0923244
31	0x3d88ef0c	0.066862196
32	0xbd9d0a1a	-0.07667942
33	0xbce4834b	-0.027894637
34	0xbd79231a	-0.06082449
35	0xbc30e280	-0.010796189
36	0xbac2af82	-0.0014853331
37	0xbde26b9d	-0.11055682
38	0x3c1aa424	0.009438548
39	0x3de55b77	0.11199086
40	0x3d6f758d	0.058461715
41	0xbdfa5411	-0.12223066
42	0x3c92053d	0.017824763
43	0x3cd42fa6	0.025901627
44	0xbb0a0599	-0.0021060465
45	0xbe3372e4	-0.17524296
46	0x3d2c5ec6	0.04208257
47	0x3e1fe9fa	0.15616599
48	0x3b5dca48	0.0033842493
49	0x3de55ba9	0.111991234
50	0x3d348c10	0.044078887
51	0x3e27ee8c	0.16399592
52	0x3d41ebe4	0.047344103
53	0x3dc6cff6	0.09707634
54	0x3d0c7aa8	0.03429666
55	0xbe0375a4	-0.12837845
56	0xbdf9e0ac	-0.12201056
57	0xbdfb2b68	-0.122641385
58	0xbd008be9	-0.03138343
59	0xbe09cab8	-0.13456237
60	0xbdf41900	-0.11918831
61	0x3e165782	0.14681819
62	0xbc0a35c2	-0.008435668
63	0x3db6784a	0.08909662

fc.2.weight f4 [64, 64]
0	0x3d93f8f2	0.07225217
1	0x3caee66e	0.021350112
2	0x3dd06027	0.101745896
3	0xbc0c0ea0	-0.008548409
4	0x3cb69c89	0.022291439
5	0xbd6d24ce	-0.057896428
6	0x3c96a10f	0.018387346
7	0x3d9426c1	0.07233954
8	0x3c562e2a	0.01307253
9	0xbd60869d	-0.054815877
10	0x3df02436	0.11725657
11	0xbc34cb27	-0.011034763
12	0x3cff4e37	0.031165225
13	0x3cd4bbf3	0.025968527
14	0xbcf9c0d8	-0.030487463
15	0xbcd8ae20	-0.026450217
16	0x3d7f1f95	0.06228598
17	0x3d48344c	0.048878
18	0x3d591c72	0.053005643
19	0x3cde1c08	0.027112976
20	0x3d36023c	0.044435725
21	0x3b1ce140	0.002393797
22	0x3de0ad05	0.10970501
23	0x3cf5b79f	0.029994784
24	0xbde833e6	-0.11338024
25	0x3d5d895a	0.054086067
26	0x3cca9680	0.024729967
27	0x3d8a2779	0.0674581
28	0xbd735a4e	-0.059412293
29	0x3cf5eaa0	0.030019104
30	0x3d646a91	0.055765692
31	0xbdcde8ef	-0.10054194
32	0xbd372e29	-0.044721756
33	0xbd6730a0	-0.056442857
34	0x3b221ac6	0.0024735196
35	0xbd42c448	-0.04755047
36	0xbdb9fbe2	-0.09081246
37	0x3d888907	0.06666761
38	0xbdaa68d3	-0.08320775
39	0xbdc85ef6	-0.09783737
40	0xbd6f57af	-0.05843323
41	0x3cb7d14e	0.022438671
42	0xbdf4a992	-0.119464055
43	0x3dbb13e1	0.09134651
44	0x3dcbebe5	0.09957103
45	0x3d8e33b7	0.069434576
46	0x3d5c7194	0.053819254
47	0x3dc7879e	0.09742664
48	0x3df40549	0.119150706
49	0xbd958471	-0.07300652
50	0xbdd722be	-0.105046734
51	0xbdd35ae3	-0.1032007
52	0x3d6e8820	0.058235288
53	0x3daa72a0	0.08322644
54	0x3c1c6019	0.009544396
55	0x3c352d8f	0.011058225
56	0x3da608fe	0.08107184
57	0x3dedc0f4	0.116090685
58	0xbde106f8	-0.10987657
59	0xbcdabdd0	-0.026701838
60	0x3d83d6fa	0.06437488
61	0xbcee89ab	-0.02911838
62	0x3ca3b910	0.019985706
63	0xbb8f4ee0	-0.0043734163
64	0xbd6d053b	-0.057866316
65	0x3d8b5efd	0.06805227
66	0xbd008368	-0.03137532
67	0x3d4ac718	0.049506277
68	0xbdf59f38	-0.11993259
69	0x3c62ba52	0.013838368
70	0x3b3704ef	0.0027926525
71	0xbcee5c83	-0.029096847
72	0x3d1d4373	0.038394403
73	0xbdd48786	-0.103774115
74	0x3be713a0	0.0070519
75	0xbc463005	-0.01209641
76	0xbc2b04a5	-0.010438119
77	0x3d5d2f58	0.05400023
78	0xbdf36898	-0.11885184
79	0x3dc7d85c	0.09758064
80	0xbde35158	-0.110994995
81	0xbd26a342	-0.04068304
82	0xbd9f3731	-0.07774199
83	0xbdfe3dd8	-0.124141395
84	0xbd843dc8	-0.06457096
85	0x3cf4b850	0.029873043
86	0x3dee1e0c	0.11626825
87	0x3da3d0ba	0.07998796
88	0x3bd4ad75	0.0064904043
89	0x3d8f5e65	0.07000426
90	0xbd7f4984	-0.06232597
91	0xbca9fcb9	-0.02075039
92	0x3d2a681e	0.0416032
93	0x3c310b00	0.010805845
94	0x3d64ec73	0.055889558
95	0xbde8b3e7	-0.11362439
96	0xbdb66810	-0.08906567
97	0xbcbd35f6	-0.02309702
98	0xbc80bfa4	-0.015716381
99	0xbbf5ff40	-0.007507235
100	0x3dff1f0c	0.124570936
101	0xbdfae970	-0.12251556
102	0xbd72d0a2	-0.059281
103	0xbd0ca366	-0.034335516
104	0xbc97a518	-0.01851134
105	0xbda49c00	-0.08037567
106	0xbc95d00c	-0.018287681
107	0x3d848a0f	0.06471645
108	0x3dc21fa5	0.09478692
109	0x3c962ed8	0.018332884
110	0x3df56f1e	0.119840845
111	0xbcc5a9e2	-0.024128858
112	0x3d93ecdf	0.07222914
113	0x3dfbc60a	0.12293632
114	0x3d4787a0	0.048713326
115	0x3df6ff92	0.12060465
116	0x3d155f95	0.036468107
117	0xbab4f080	-0.0013804585
118	0xbdc7aca9	-0.09749729
119	0x3c535693	0.012899059
120	0xbc621afb	-0.013800378
121	0x3b80dc80	0.0039325356
122	0xbd2923df	-0.041293975
123	0x3e00ed1b	0.12590449
124	0x3cac87a0	0.021060765
125	0x3d1fb16e	0.03898757
126	0xbd9ac869	-0.075577565
127	0x3d02dd98	0.03194961
128	0xbdfdcef0	-0.12392986
129	0xbc74f720	-0.014951497
130	0xbd9be210	-0.076114774
131	0xbd61cfe4	-0.0551299
132	0x3deabf64	0.11462286
133	0x3d3956b1	0.04524869
134	0x3de10110	0.10986531
135	0xbd0ce976	-0.034402333
136	0xbd67b9b9	-0.056573603
137	0x3c9da8cc	0.019245528
138	0xbdca3ca4	-0.098748475
139	0xbd62e7dd	-0.055396903
140	0x3ccc5b9b	0.024946025
141	0x3d86b0bd	0.06576679
142	0x3d5d0594	0.053960398
143	0x3c436cea	0.011927823
144	0x3dccef9f	0.100066416
145	0xbcf923c1	-0.030412557
146	0xbd79e60a	-0.061010398
147	0x3cced468	0.025247768
148	0x3d7fa20c	0.0624104
149	0x3bfc5e20	0.0077016503
150	0x3df39098	0.118928134
151	0x3ccc9819	0.02497487
152	0xbd88b2dc	-0.0667474
153	0x3cfdbc4a	0.030973572
154	0x3dc030e4	0.09384325
155	0xbde7d2f9	-0.11319537
156	0xbd8e933c	-0.069616765
157	0x3deab230	0.11459768
158	0xbdf278da	-0.11839457
159	0x3dc32dbd	0.09530208
160	0xbd67ceec	-0.05659382
161	0xbcc1ba62	-0.023648445
162	0x3dcebdfe	0.10094832
163	0xb9019c00	-0.00012360513
164	0xbd994a89	-0.074849196
165	0x3d831578	0.06400579
166	0xbd09da47	-0.03365543
167	0xbcaa5e1f	-0.020796834
168	0xbd2b763f	-0.041860815
169	0xbd965f56	-0.07342403
170	0x3dc2959f	0.09501194
171	0x3d943c83	0.07238104
172	0xbd061de0	-0.032743335
173	0x3ddf3755	0.108992256
174	0xbcfc3a3a	-0.030789483
175	0xbcd69295	-0.026192943
176	0xbb972a80	-0.0046132207
177	0x3b060640	0.0020450503
178	0x3ca77b90	0.020444661
179	0xbcebc3ac	-0.028779827
180	0x3de9a584	0.11408523
181	0x3cd39d00	0.0258317
182	0x3bc15417	0.005899917
183	0xbd5a3423	-0.053272378
184	0x3c752e04	0.014964584
185	0xbd877e96	-0.06615941
186	0x3dee385d	0.11631844
187	0xbc8d88da	-0.01727717
188	0xbcbe2dc8	-0.02321519
189	0x3de1e208	0.1102944
190	0x3d857d37	0.065180235
191	0xbda5ff82	-0.08105375
192	0x3d99ed6d	0.075159885
193	0x3d4b1b5f	0.04958665
194	0xbd07e999	-0.03318176
195	0x3d806af4	0.062704
196	0x3dcba4dc	0.09943554
197	0xbd42540a	-0.047443427
198	0x3c0f3f07	0.008743054
199	0xbdc9c1cf	-0.09851419
200	0x3dd36f59	0.10323972
201	0x3d3c5815	0.04598244
202	0x3d0973a4	0.03355755
203	0xbcdd516d	-0.027016366
204	0xbcc66527	-0.024218155
205	0xbdb11413	-0.08646407
206	0x3dd8ed14	0.10592094
207	0xbd74973f	-0.059714552
208	0xbd0e939e	-0.034808747
209	0xbd62cb06	-0.0553694
210	0xbde76112	-0.112978116
211	0xbd470714	-0.048590735
212	0xbc3a6290	-0.011376038
213	0xbc991830	-0.018688291
214	0x3d17d651	0.037069622
215	0xbc6cb290	-0.0144468695
216	0xbd5e117e	-0.0542159
217	0x3b398834	0.0028309943
218	0x3c985833	0.018596744
219	0xbdc903dc	-0.09815189
220	0xbd65b184	-0.056077495
221	0xbdae1ee0	-0.08501983
222	0xbd7eac7e	-0.06217622
223	0xbd65ba0d	-0.056085635
224	0x3cc4ac6f	0.024008004
225	0x3dfbcb4e	0.12294637
226	0xbdf6db66	-0.12053566
227	0xbdc4b876	-0.09605496
228	0x3dfb8f58	0.122832
229	0x3d8c784d	0.06858883
230	0xbd5888f4	-0.052864984
231	0x3bfee439	0.007778671
232	0x3bb50da3	0.0055253073
233	0xbb062312	-0.002046768
234	0xbdf6535f	-0.120276205
235	0x3cb78e5b	0.022406748
236	0x3d314834	0.04328175
237	0x3cf43052	0.029808197
238	0x3dea8223	0.11450603
239	0x3dee025a	0.11621542
240	0xbd4885db	-0.04895578
241	0x3de2dc2a	0.11077149
242	0x3c9e9178	0.019356474
243	0x3d4fa4c0	0.050694227
244	0x3da12997	0.07869261
245	0xbdea085c	-0.11427376
246	0x3da7887e	0.08180331
247	0xbdd362d5	-0.10321585
248	0x3db9cd4e	0.09072362
249	0x3d84c0ba	0.06482072
250	0x3d96a94b	0.07356509
251	0xbd46e977	-0.048562493
252	0xbdc1c6e6	-0.09461765
253	0xbd1d102a	-0.038345493
254	0x3c05b8e8	0.008161761
255	0x3dd21782	0.1025839

fc.2.bias f4 [64]
0	0x3c96dd89	0.018416183
1	0x3d1ea552	0.03873188
2	0x3dd6580e	0.10466014
3	0xbda782c5	-0.08179239
4	0xbcd4807f	-0.025940178
5	0x3d77676c	0.060401365
6	0x3caae20e	0.020859744
7	0xbc52bf43	-0.012862983
8	0x3d4484dc	0.047978267
9	0x3dc23d04	0.09484294
10	0xbd6e5c20	-0.058193326
11	0xbc5d1950	-0.0134948045
12	0x3db11780	0.086470604
13	0xbd77be44	-0.060484186
14	0xbce9b185	-0.02852703
15	0x3d4ac478	0.049503773
16	0xbd1bfe7d	-0.038084496
17	0x3d5d915a	0.054093696
18	0xbdb08354	-0.08618799
19	0x3d17bd7a	0.037045933
20	0xbd7501d8	-0.05981621
21	0xbdfb3715	-0.122663654
22	0xbe003359	-0.12519588
23	0xbcc42a20	-0.023945868
24	0x3dd7304e	0.1050726
25	0xbddfba10	-0.109241605
26	0x3dd088cc	0.10182342
27	0x3dd277f7	0.10276788
28	0x3c7e790f	0.015531792
29	0x3dad3b35	0.084585585
30	0x3cdace84	0.026709802
31	0xbda3a622	-0.07990672
32	0x3d9f072e	0.07765041
33	0x3dd724a4	0.105050355
34	0x3d0ab665	0.03386535
35	0xbd08bfb2	-0.03338594
36	0x3d320d77	0.043469872
37	0xbc1e5535	-0.00966387
38	0xbd3fa20b	-0.046785396
39	0xbdea5023	-0.11441066
40	0xbd81e250	-0.06341994
41	0xbc67892e	-0.014131827
42	0xbd0e0c98	-0.03467998
43	0x3e01085d	0.12600847
44	0xbb8b2ea0	-0.0042475015
45	0x3da83aa6	0.08214311
46	0x3d64e1f5	0.055879552
47	0x3df72ecc	0.12069473
48	0x3c9cc46e	0.019136634
49	0xbc465a32	-0.012106465
50	0x3d8e6bbc	0.069541425
51	0x3d50ea70	0.051004827
52	0x3d8c7837	0.06858867
53	0x3db2f5fc	0.08738324
54	0x3cab805a	0.020935226
55	0xbd8f9773	-0.070113085
56	0xbd905ffc	-0.070495576
57	0x3dc81087	0.09768777
58	0xba974700	-0.0011541545
59	0xbde193f8	-0.11014551
60	0x3cb96fa8	0.02263625
61	0xbdf3e0df	-0.11908125
62	0x3c9834fd	0.018579954
63	0xbd1df43b	-0.038562994

policy.weight f4 [4, 64]
0	0xbdda4fd4	-0.10659757
1	0xbdbc3966	-0.091906354
2	0xbde11177	-0.10989659
3	0x3dd33c53	0.1031424
4	0x3cb7f966	0.02245779
5	0x3dc3f4a8	0.09568149
6	0xbc62347b	-0.013806458
7	0x3dcf4768	0.101210415
8	0x3dc32f10	0.09530461
9	0x3d802a1e	0.06258033
10	0x3db245c4	0.08704713
11	0xbcb25bf8	-0.02177237
12	0xbd071520	-0.03297913
13	0xbdb11b00	-0.08647728
14	0xbd9ee277	-0.077580385
15	0xbd497636	-0.049185
16	0x3dcb79c1	0.09935332
17	0x3d256581	0.040380005
18	0xbd9ab1a4	-0.075534135
19	0x3ddcbf8c	0.10778722
20	0xbc552320	-0.013008863
21	0x3df99ed9	0.12188501
22	0x3cdf77c2	0.027278785
23	0x3dd1d9f0	0.102466464
24	0xbd1a8b89	-0.037730727
25	0x3db7d2f8	0.08975786
26	0xbd588294	-0.052858904
27	0xbdee28d0	-0.11628878
28	0x3c9d8479	0.019228207
29	0x3c1fa859	0.009744727
30	0xbd1f8f45	-0.03895499
31	0xbd8f851c	-0.070078105
32	0xbdbe74e6	-0.0929964
33	0xbdf5f815	-0.120102085
34	0xbd8e8f55	-0.06960932
35	0x3d5fd827	0.0546495
36	0x3c9cb998	0.019131467
37	0x3dc2e283	0.0951586
38	0x3df63618	0.12022036
39	0xbdc96f43	-0.098356746
40	0x3cf50dc6	0.029913794
41	0xbc8c9356	-0.017160099
42	0x3dfd06a8	0.12354785
43	0x3d6aa31e	0.057284467
44	0x3c12f4b0	0.008969471
45	0xbd95eaf3	-0.07320204
46	0x3c9b112a	0.018929083
47	0x3a552900	0.00081314147
48	0x3dd04ee3	0.101712964
49	0x3c5eb665	0.013593291
50	0xbd735044	-0.05940272
51	0xbd9f1bd6	-0.07768981
52	0x3d028161	0.031861667
53	0x3cefe212	0.029282603
54	0xbd0ceda3	-0.034406316
55	0xbd9c0466	-0.076180264
56	0xbd368d58	-0.04456839
57	0xbd70532d	-0.058673073
58	0xbcacd640	-0.021098256
59	0xbdaa0f7d	-0.083037354
60	0x3d7b6fa4	0.061385766
61	0xbcf5ec92	-0.030020032
62	0x39ee32fa	0.00045432878
63	0x3d1f3d43	0.038876783
64	0x3d0ff29c	0.03514348
65	0x3d64bf17	0.0558463
66	0xbdf0e223	-0.11761882
67	0xbd98d0ce	-0.07461701
68	0x3d93eb12	0.072225705
69	0x3d928c16	0.071556255
70	0x3d45d149	0.048295293
71	0x3dbd0c36	0.09230845
72	0x3d306548	0.04306534
73	0xbdefc268	-0.11707002
74	0x3cd3cc90	0.025854379
75	0x3d93e14c	0.07220706
76	0xbd8b243b	-0.0679402
77	0xbc83a910	-0.016071826
78	0xbd3e9075	-0.046524484
79	0xbc036b5a	-0.0080212
80	0xbc4d85dd	-0.0125441225
81	0x3d650c2a	0.055919804
82	0x3c858a48	0.01630129
83	0xbd995f86	-0.07488923
84	0x37ca6000	2.412498e-05
85	0x3d059884	0.032616153
86	0x3dac7eea	0.084226444
87	0xbc6c3b8a	-0.014418492
88	0x3dd9afb6	0.10629217
89	0xbc4a4970	-0.01234661
90	0xbdf1f5b8	-0.11814445
91	0xbc2f9c97	-0.010718486
92	0xbcc2a8a8	-0.023762062
93	0x3d9dc030	0.077026725
94	0x3da6e1f9	0.081485696
95	0x3d9cc7f4	0.076553255
96	0xbc196b00	-0.00936389
97	0x3d157cb8	0.036495894
98	0x3df5f85d	0.12010262
99	0x3d89816e	0.0671414
100	0x3d98f613	0.0746881
101	0xbda93c9c	-0.082635134
102	0xbd7b5c12	-0.061367102
103	0x3c6dfe61	0.014525981
104	0x3d2fe889	0.042946372
105	0x3d1c2d8e	0.03812938
106	0x3d5ed818	0.0544053
107	0x3d02332a	0.031787075
108	0x3caf7a70	0.021420687
109	0x3d9c690c	0.076372236
110	0x3df90efb	0.121610604
111	0x3cd6e958	0.026234314
112	0xbda7c42a	-0.08191712
113	0xbce1b88d	-0.027553821
114	0x3da7ec72	0.08199395
115	0xbdfd6404	-0.12372592
116	0xbd9c3f52	-0.07629265
117	0x3dafd63a	0.08585782
118	0xbd60089e	-0.054695718
119	0xbc835fa4	-0.016036816
120	0x3df58e14	0.1198999
121	0x3c9eef86	0.019401323
122	0x3de5bf26	0.11218099
123	0x3d4a9ec5	0.04946782
124	0xbdb66c82	-0.08907415
125	0x3c664885	0.014055376
126	0x3d8a0b9f	0.06740498
127	0x3d3d7195	0.0462509
128	0x3d097659	0.03356013
129	0x3d719303	0.058978092
130	0xbddf9baf	-0.10918366
131	0x3d840c33	0.06447639
132	0xbc967a22	-0.018368784
133	0xbd87e786	-0.066359565
134	0x3d55941f	0.052143212
135	0xbd350202	-0.044191368
136	0x3d971cd8	0.073785484
137	0x3e0097c3	0.12557893
138	0x3dc2e138	0.09515613
139	0x3d37d590	0.044881403
140	0x3d5e455c	0.054265365
141	0x3dd02aa8	0.10164386
142	0x3df37bc6	0.11888842
143	0xbd174363	-0.0369295
144	0xbd9486ca	-0.072522715
145	0xbddfdb61	-0.10930515
146	0x3ddc3668	0.10752565
147	0x3d521285	0.051287193
148	0x3dc04030	0.09387243
149	0xbd6ff57f	-0.058583733
150	0xbdc173ed	-0.09445939
151	0xbdf9e013	-0.12200942
152	0xbde0aac2	-0.109700695
153	0x3dbe56ea	0.09293921
154	0xbd5b2320	-0.053500295
155	0xbc38b380	-0.011273265
156	0x3d1233cd	0.035693932
157	0xbdfae839	-0.12251324
158	0xbb14b3ee	-0.0022690254
159	0xbd93a3b0	-0.07208955
160	0x3d44b508	0.048024207
161	0xbd359602	-0.04433251
162	0x3c81a314	0.015824832
163	0x3ca3c203	0.019989973
164	0xbd73f1f7	-0.059556928
165	0xbd669b64	-0.056300536
166	0xbd92469f	-0.07142376
167	0x3dd26c76	0.102745935
168	0x3c9d89b3	0.0192307
169	0x3d4e91b8	0.050431937
170	0xbdefa06c	-0.1170052
171	0x3c4ed851	0.012624816
172	0xbd61a444	-0.055088297
173	0xbd9c3ef2	-0.07629193
174	0x3d5cfda8	0.053952843
175	0x3db61fc2	0.08892776
176	0x3d6ffdd0	0.058591664
177	0xbc68d982	-0.014212014
178	0xbda79d5c	-0.08184311
179	0x3be8be40	0.0071027577
180	0x3d6f8c77	0.058483567
181	0x3de53e04	0.11193469
182	0xbdf6be6c	-0.12048039
183	0x3d8b887a	0.0681314
184	0x3d154220	0.036440015
185	0x3df1a925	0.1179984
186	0xbdab630e	-0.083685026
187	0x3d9b6df0	0.07589328
188	0x3d102dec	0.035200045
189	0xbce34e5f	-0.027747331
190	0xbd235fb4	-0.03988619
191	0x3c0476b7	0.008084944
192	0x3de0ba1e	0.10972999
193	0xbdb4b1d4	-0.088229805
194	0xbd965e39	-0.0734219
195	0x3be9df4a	0.007137214
196	0x3dbb25f3	0.091380976
197	0x3d1bc9a8	0.03803411
198	0xbcd54e2e	-0.026038256
199	0x3d03a9f0	0.032144487
200	0xbdff1320	-0.1245482
201	0xbd8bb998	-0.068225086
202	0xbde7c8b8	-0.11317581
203	0x3d0d756c	0.03453581
204	0xbd924c4c	-0.07143459
205	0x3dc69e28	0.09698135
206	0xbd1b8de8	-0.03797713
207	0x3dd0bfe5	0.10192851
208	0x3cb1d186	0.021706354
209	0x3c85a109	0.01631214
210	0x3d850b8e	0.064963445
211	0x3db1a602	0.086742416
212	0xbb4ef500	-0.0031579137
213	0x3df2b31b	0.11850568
214	0xbd427f13	-0.04748447
215	0x3dc8795e	0.09788774
216	0x3d7574a8	0.059925705
217	0x3dbfad3a	0.09359212
218	0xbd9b855a	-0.07593794
219	0xbda13241	-0.07870913
220	0xbd94e3f2	-0.072700396
221	0xbd8b4913	-0.06801047
222	0x3ceb1197	0.02869491
223	0xbaa0d480	-0.0012270361
224	0x3d8a5586	0.067545936
225	0xbdbfec1a	-0.09371205
226	0xbdc5e33c	-0.09662482
227	0x3dde5f27	0.108579926
228	0x3db53226	0.08847456
229	0xbc7dd202	-0.015491964
230	0x3dc59550	0.0964762
231	0x3d8804db	0.06641551
232	0x3da74c49	0.08168847
233	0x3b3edb13	0.0029122278
234	0xbdd4064c	-0.103527635
235	0x3cb518a9	0.022106485
236	0xbd48bea8	-0.04900995
237	0x3dc79d73	0.09746828
238	0x3dffb1c2	0.124850765
239	0xbdd44cf4	-0.1036624
240	0xbd9b179e	-0.07572864
241	0xbd80a192	-0.06280817
242	0xbd8cfcac	-0.06884131
243	0x3dc23d54	0.09484354
244	0xbbb60c04	-0.0055556316
245	0x3dfbb81d	0.12290976
246	0xbdb93f3a	-0.09045263
247	0xbdba87b1	-0.09107912
248	0xbd1e65c8	-0.038671285
249	0x3d954771	0.07289017
250	0xbcdb7500	-0.026789188
251	0xbda16b5e	-0.07881807
252	0xbdd46b40	-0.10372019
253	0x3a7263af	0.00092464214
254	0x3dbf84e3	0.09351518
255	0x3cd84f99	0.026405143

policy.bias f4 [4]
0	0x3c00fc90	0.007872716
1	0x3d865640	0.0655942
2	0xbd59da7f	-0.05318689
3	0x3daed634	0.0853695

value.weight f4 [1, 64]
0	0xbdf61bf0	-0.120170474
1	0x3d5b871f	0.05359566
2	0xbdbb18c5	-0.09135584
3	0xbdeee48c	-0.116646856
4	0x3aeb091e	0.0017931794
5	0x3da8973c	0.08231971
6	0xbd50550b	-0.050862353
7	0xbb5170d2	-0.0031958115
8	0x3d14ebdc	0.036357746
9	0x3d96d628	0.07365066
10	0xbd34dadc	-0.044154033
11	0xbdca8522	-0.09888674
12	0xbda8b649	-0.08237893
13	0x3da3c4d6	0.07996528
14	0xbd33d9eb	-0.043908995
15	0x3d0c9cf0	0.034329355
16	0x3dea2df2	0.114345446
17	0xbd37e746	-0.044898294
18	0xbc9b9428	-0.018991545
19	0xbd84346f	-0.064553134
20	0xbd7bb43c	-0.06145118
21	0x3d93b7af	0.07212769
22	0xbce663a4	-0.028123684
23	0xbd60a4e9	-0.05484477
24	0x3d234547	0.03986099
25	0xbc9587b8	-0.018253192
26	0x3cb022a0	0.021500885
27	0xbd265caa	-0.040615715
28	0x3db9c01f	0.09069847
29	0xbdca8626	-0.09888868
30	0x3dffebce	0.12496148
31	0xbdf4cff2	-0.11953725
32	0xbc1bf3c0	-0.009518564
33	0xbb6e51b1	-0.003636461
34	0xbc372ee5	-0.011180614
35	0xbc9734de	-0.018457826
36	0xbdf0cc93	-0.117577694
37	0xbdf01103	-0.11721995
38	0xbde43657	-0.11143177
39	0x3dba7699	0.09104652
40	0x3d101040	0.035171747
41	0xbdec41f4	-0.11536017
42	0x3d809b18	0.06279582
43	0x3d6ccc90	0.057812274
44	0xbdddb6d2	-0.10825886
45	0xbc8a5755	-0.016887346
46	0x3d8abf16	0.06774728
47	0xbdc48ef2	-0.09597577
48	0xbd4c183a	-0.04982779
49	0x3dd4c308	0.10388762
50	0x3da08bf0	0.07839191
51	0x3dcd0054	0.10009828
52	0x3dae819a	0.08520813
53	0xbde9b433	-0.114113234
54	0xbc12b629	-0.008954563
55	0x3de8bb0f	0.113638036
56	0x3dedb4c2	0.116067424
57	0x3d019537	0.031636443
58	0xbdb47164	-0.0881069
59	0xbdc9e7f5	-0.098586954
60	0x3c0629c0	0.008188665
61	0x3d20fe93	0.03930528
62	0x3dab95a9	0.08378155
63	0xbb6dfb01	-0.003631294

raise_mean.weight f4 [1, 64]
0	0xbd906d62	-0.07052113
1	0xbdc8c1a4	-0.09802559
2	0x3d1653a0	0.036700845
3	0xbd896666	-0.06708984
4	0x3da658be	0.08122395
5	0xbdae9c02	-0.0852585
6	0xbd4d4de4	-0.05012311
7	0x3c2cdfb0	0.010551378
8	0x3dda73fe	0.10666655
9	0xbdad8f88	-0.08474642
10	0xbd7a7c20	-0.06115353
11	0xbd8003d2	-0.06250729
12	0xbc760a80	-0.015017152
13	0x3dbc1996	0.09184568
14	0xbd8471c6	-0.06467013
15	0x3de5e4fe	0.112253174
16	0xbd9fcf04	-0.07803157
17	0x3d9f6434	0.07782784
18	0xbd82ecde	-0.06392835
19	0x3bd6abe0	0.006551251
20	0x3b4f62c0	0.0031644553
21	0xbcda2bd8	-0.026632234
22	0x3db5b486	0.08872323
23	0x3d42ec58	0.047588676
24	0x3da1d03e	0.07901047
25	0xbdd4c7c0	-0.10389662
26	0x3b899260	0.0041983575
27	0xbdf0d156	-0.11758678
28	0xbd296278	-0.041353673
29	0x3da1c97a	0.07899757
30	0x3ddd202e	0.107971534
31	0x3cdc0600	0.02685833
32	0x3de49304	0.111608535
33	0x3d61b7cc	0.055106923
34	0xbdfd12ce	-0.12357102
35	0x3d617e08	0.055051833
36	0x3d65f440	0.056141138
37	0x3ddd428e	0.1080371
38	0x3d511474	0.051044896
39	0x3d77a73c	0.06046222
40	0x3dc1266c	0.094311565
41	0xbd12a5ec	-0.035802767
42	0xbdaf99b2	-0.08574237
43	0xbd82f036	-0.06393473
44	0xbce49100	-0.027901173
45	0xbd8eabd2	-0.06966366
46	0x3c406d40	0.011744797
47	0xbc4421f0	-0.011970982
48	0xbdeec73c	-0.11659095
49	0x3d31fbc8	0.043453008
50	0x3dcee01a	0.10101338
51	0x3df61a94	0.12016788
52	0x3d3f330c	0.04667954
53	0xbd3a5bac	-0.04549758
54	0x3d73ed44	0.059552446
55	0x3dd68530	0.10474622
56	0x3d80bc2a	0.062858894
57	0x3dafd096	0.085847065
58	0xbccca9b8	-0.024983272
59	0x3c3630e0	0.011120051
60	0xbd81172c	-0.06303248
61	0x3c441300	0.011967421
62	0x3d85d4ea	0.06534751
63	0xbbb514e0	-0.00552617
