backend/models/poker_ppo_agent_6.pth (torch, 31852 bytes, 8 tensors)

fc.0.weight f4 [64, 34]
00000000: d851 febd e2b7 24be d8b3 0bbe b630 d03d
00000010: 0370 09be c0b4 6b3c 6cb0 7bbd a007 d8bb
00000020: b05e e13c 0c5e 2b3d 7af7 94bd 209c a03b
00000030: 1f0f 0d3e b2b9 19be ea83 fe3d 7eb5 953d
00000040: 5ea0 b53d d0b0 abbd 8ee3 8b3d e842 6f3d
00000050: d452 edbd 7e47 823d e4e9 cfbd a8d5 fdbc
00000060: 7a32 fe3d b47d 42bd 051a 16be c0d9 ec3c
00000070: 9670 ff3d f06f 41bc cb8c 18be 7ce5 8c3d
00000080: c282 b63d a05e aebb 5c0e 183e 49ed f33d
00000090: 0dbc de3d 3bf5 fe3d 4b25 f0bc c1f4 b5bd
000000a0: 8d50 003e aafa b43c f08f 1f3e 0ceb 323d
000000b0: 4ff5 0b3b 9528 563d b265 a43d 541f 72bc
000000c0: b0d4 b4bd 71ce 203e 3828 ebbd 482b 9a3d
000000d0: 8002 cb3d dd9b 233e 38d4 d0bc cf96 afbd
000000e0: 4649 a5bd 51c0 1bbe 87b7 2b3e 1c81 99bc
000000f0: a361 16bd c699 c1bd 04b9 1cbe df43 2fbd
00000100: 4363 123c b4e8 273c 0a56 9a3d 2027 a1bb
00000110: 1f3e bf3d 7762 143c ebfc 6dbd aafa 063e
00000120: cf21 173d 1e82 ed3d 7a37 07be f32c 83bd
00000130: 82e9 003e ce78 da3d 211f c6bd 77a6 0b3e
00000140: 1906 203e 5776 413d 3fd7 81bd 27fb 2cbe
00000150: 66f9 95bd aa82 17be 2d5c 31be cbb3 443d
00000160: bf7c d4bd 92b5 c23d 58d4 043d 68f5 63bd
00000170: 0057 67bc c38d 9a3d aff8 023e 6259 f2bd
00000180: b9f8 60bd d10f a2bd cbac f63d bf3b 403d
00000190: 8fb6 783d 1de0 103e c083 9fbc 227f fb3d
000001a0: 00e9 31bd 6466 143d 0ab3 97bd 2c37 3dbd
000001b0: f7c3 16be 8aa8 893d 65e0 96bd 581c 833c
000001c0: ea7a c23d 883b eb3c df18 0c3e f400 00be
000001d0: beb9 9d3d 587e 34bd f3b1 243e d0db 943d
000001e0: 88ec 3dbd f98d 2d3e 9cad 0bbe fce9 29bd
000001f0: 97be 133e c0af 5d3d 9c36 85bd b084 1abe
00000200: a2d1 93bd 8ad6 863d 5318 d9bd c8a2 7dbd
00000210: 12e3 c33d 92f6 abbd 22c3 803d 583c 2bbd
00000220: 48bd 60bd 5256 143e 58e9 af3d d844 2f3c
00000230: 1ab9 42bd ac09 e9bd 2a86 e13d 8e66 febd
00000240: 832c 09be fedd 0abe 0b7a cdbd 887f 183d
00000250: 50ca 24bd 9e6b 0ebe 232b 563d cc83 e5bd
00000260: 0131 243d 2bb9 42bd a3a3 aabb 21b1 513a
00000270: ed2c 223e 6e30 e0bd a95a 563b 7a71 d23d
00000280: 97d3 163e 991a 07be 62e6 723d a008 533d
00000290: dee4 ab3d 384c 253e 9241 4abd 09c4 113c
000002a0: 6c27 203e e1fc cbbd ea82 0a3e 1773 7cbd
000002b0: f067 3f39 a986 b0bc b916 74bd e13b 1bbe
000002c0: 6875 883d 7c9c a8bd df6b 573d 34cc 973b
000002d0: 5b31 ecbd ecb2 1ebe a160 2fbe 82ef 443d
000002e0: e969 a43d c5a9 513b 23e9 233e 6c17 20be
000002f0: 2b12 fcbd df13 dc3d 5387 103e c7be 003e
00000300: d523 9c3d e023 5fbc ef5a 27be c65d 13bd
00000310: c70b 063e 0ad5 46bd 47fa a03d a4eb 0f3e
00000320: 7ef4 203e 0f8f d23d af34 f63d aa2c febd
00000330: 9aee a13c e14c 18be 07bc 813d 90f8 b33b
00000340: a8be bf3c 6eb5 0fbe 8c5e 2c3d a27e 24be
00000350: ada8 5c3d d0d5 053e b042 73bc 3570 acbd
00000360: 6a40 b93d 2071 cb3d 529b b73d 2d7a 7a3d
00000370: 6a45 0a3e 9619 4dbd a6b0 213e 51e4 7b3d
00000380: c0ad d3bc 80e8 df3c 39d1 bcbd 98ce ae3c
00000390: c025 633d 555b 82bd b703 73bd 0e6b 69bd
000003a0: 6310 28be 3e6c 0d3d aecc 1dbd ce04 593d
000003b0: 59b6 90bd 2a06 18be a93c 88bd 90c1 263d
000003c0: 631a 2fbe e255 0bbe abfe 233e 77cd d1bd
000003d0: 7d0b 95bd 6f5a 233e d818 80bd 10ff d93c
000003e0: d0b3 b43c 2fbd bcbd a004 ddbb 4a7d 13be
000003f0: 70b8 4b3c 4d30 99bd ae50 a33d 094e 2f3e
-0.12417954 -0.1608577 -0.13642824 0.10165541 -0.13421635 0.014386356 -0.061447546 -0.006592706
0.02751097 0.041837737 -0.07273765 0.004901424 0.137753 -0.15012243 0.12427504 0.073100075
0.08868478 -0.08383334 0.06830512 0.058413416 -0.11588064 0.06361292 -0.10152033 -0.030985668
0.124119714 -0.04748316 -0.14658363 0.028912425 0.12472646 -0.011806473 -0.14897458 0.06879708
0.08911659 -0.005321339 0.14849228 0.11910493 0.108757116 0.12449118 -0.029314658 -0.08884574
0.12530728 0.022092182 0.15582252 0.04368119 0.0021355932 0.052284796 0.08027209 -0.014777977
-0.088296294 0.15703751 -0.114822805 0.075277865 0.09912586 0.15977426 -0.025491819 -0.08573686
-0.080706164 -0.15210082 0.16769229 -0.018738322 -0.036714207 -0.09453158 -0.15304953 -0.042789336
0.008934799 0.010248352 0.07535942 -0.004917994 0.093380205 0.009056679 -0.05810253 0.13181558
0.036897477 0.115970835 -0.13204756 -0.06405058 0.12589076 0.10667573 -0.09673906 0.1363772
0.15627326 0.047232 -0.06339883 -0.16892682 -0.073229596 -0.14795938 -0.17320319 0.048023026
-0.10375356 0.09507288 0.03242907 -0.05565396 -0.0141198635 0.0754657 0.12790178 -0.11833455
-0.0549247 -0.07913173 0.120446764 0.04693198 0.060720976 0.14147992 -0.019472003 0.12280108
-0.043435097 0.03623046 -0.07407196 -0.046195194 -0.14723192 0.067215994 -0.073670186 0.016004726
0.094961 0.02871491 0.13681363 -0.12500364 0.07701443 -0.044065803 0.16083507 0.072684884
-0.046368152 0.1694869 -0.13640445 -0.04148291 0.14428173 0.054122686 -0.065045565 -0.15089679
-0.07217719 0.06583889 -0.106003426 -0.06192282 0.095647946 -0.08396639 0.06287219 -0.041805595
-0.054868013 0.14486054 0.08589429 0.010697566 -0.047539808 -0.11378798 0.11011918 -0.124219045
-0.13395886 -0.13561246 -0.100330435 0.037231 -0.040232003 -0.1390824 0.052287232 -0.11206779
0.040085796 -0.04753987 -0.0052074953 0.00079991115 0.1583745 -0.10946737 0.0032707846 0.1027555
0.14729153 -0.1319374 0.05930174 0.051521897 0.08393262 0.16142356 -0.04937894 0.008896836
0.15640038 -0.09960342 0.13526502 -0.061633196 0.00018253899 -0.021548586 -0.059591983 -0.1515956
0.066630185 -0.08232972 0.05259311 0.004632497 -0.11532851 -0.15497941 -0.17126705 0.048079975
0.08028013 0.003199206 0.16006903 -0.15633935 -0.12308153 0.107459776 0.14114122 0.12572776
0.07624022 -0.013619393 -0.16343282 -0.0359781 0.1309043 -0.048543014 0.078602366 0.14054734
0.15718266 0.102811925 0.12021767 -0.12410863 0.019767094 -0.14873077 0.063346915 0.0054922774
0.023406342 -0.14034054 0.042082354 -0.16063932 0.0538718 0.13069844 -0.0148474425 -0.08419839
0.09045489 0.09933686 0.08965172 0.061151672 0.13503042 -0.05007323 0.15790042 0.061497036
-0.025839686 0.027332544 -0.092195936 0.021338746 0.055455923 -0.063650765 -0.059329715 -0.05698686
-0.16412501 0.034527056 -0.038525276 0.052983098 -0.0706603 -0.14846101 -0.06652195 0.04071194
-0.1709991 -0.1360698 0.16015117 -0.102442674 -0.07277582 0.15952466 -0.062547386 0.026610881
0.022058398 -0.092157714 -0.006744936 -0.14403263 0.01243411 -0.07479916 0.07974373 0.17119612

fc.0.bias f4 [64]
00000000: 98e8 83bc a1e3 a33d b425 19be 300b 89bd
00000010: 781d 1a3e 97bf 9a3d 4855 263e c594 86bd
00000020: b5db 973d d1ae 2b3e 2d75 07be e20b 0bbe
00000030: 762f 8f3c 264e 273e e90e 99bb e06c 3abd
00000040: a9f5 8cbd 6023 a4bb a2e2 14be 9b2d 063e
00000050: 6027 83bd f0ce 5fbc c60f c83d 49bc f73d
00000060: 437a e5bd 4f64 52bc e34b 85bd 6dda a83c
00000070: 4c8e cdbd d089 ddbc d00c 29bd dcd0 273e
00000080: 8e04 f73d 8831 7fbd 28e6 20be 69da 18be
00000090: e864 e13c f4a1 0dbe 6c4a 19be b344 0b3e
000000a0: 42ee 8bbd a4df 213d e4c1 33bb 7661 bd3d
000000b0: ed51 823d 4240 f8bd 3a4f 003e 606b 4b3c
000000c0: 4d5f 11be 16b1 ac3d ba7d 18be e896 713d
000000d0: 455d f1bd df66 133d be08 373d a39a 163e
000000e0: 2300 babd 6dea f73d 60cd db3d c8e7 203d
000000f0: 4383 0bbe 8d67 e63d f229 1e3d d72d 9bbc
-0.01610212 0.08002401 -0.14955789 -0.06691587 0.15050304 0.07556074 0.1624347 -0.06571344
0.07414953 0.16765906 -0.13228293 -0.13578752 0.017478686 0.16338405 -0.004670967 -0.045513988
-0.068827935 -0.0050091 -0.14539579 0.13103335 -0.064039946 -0.013660178 0.097686335 0.120964594
-0.1120496 -0.012841298 -0.06508615 0.020611966 -0.100369066 -0.027043253 -0.041271985 0.16388267
0.120614156 -0.062303096 -0.15712798 -0.14927067 0.027513936 -0.13831311 -0.14969796 0.13600425
-0.068325534 0.03951992 -0.00274288 0.09247105 0.06363282 -0.12121631 0.12530223 0.012415737
-0.1419651 0.08432214 -0.14891711 0.058981806 -0.11785368 0.035986777 0.04468607 0.14707427
-0.09082057 0.1210526 0.107325315 0.039283544 -0.13624291 0.112502195 0.03861422 -0.018942757

fc.2.weight f4 [64, 64]
00000000: 8861 b53d ae73 963d d82e 2a3d 246d ed3d
00000010: 7769 923d 525f 2e3b dc77 8e3d 8808 77bd
00000020: 109b 9a3d 98aa d6bc d8a8 90bc 78be d03d
00000030: adcd e2bd 7a18 ce3d 640d 30bd d472 12bd
00000040: 7250 e83d 6acb aebd 24c2 003d 2961 d7bd
00000050: aeb7 ae3d 1033 c53d 9c98 da3d 33ae 6ebc
00000060: acfe a7bd 779e 473d d717 b7bd c820 863d
00000070: 0077 bf3d 9819 89bd 38b9 40bd 40bf b2bd
00000080: 71a1 0c3c 5e7c a13d 66af bf3d c4d2 c2bb
00000090: 06e3 de3d 5c3c 2b3c 8c03 d9bd 17b9 4cbc
000000a0: b0fa 373d c7f9 83bc 29bc eb3d 5ae0 853d
000000b0: f4c6 11bc ecb3 a73d ba03 5d3c 7431 633d
000000c0: 20e5 cebd 78c3 44bc 5cf1 fbbc 88d3 1b3d
000000d0: 4d88 35bd 778b e23d d783 91bd 6095 7d3d
000000e0: edfa 633c fd4f 61bd 071c 31bd 9ea5 f0bd
000000f0: 2421 2a3b 5e2b 8fbd 502a 17bd dc6c df3d
00000100: 6654 d2bd f2f7 f2bd 4600 bb3d 400d adbb
00000110: 44b2 d83d e28c d5bd 3ee4 c5bd 58ba fcbd
00000120: b85b 763d f06e 47bd 1023 69bc deef a2bd
00000130: e461 d9bd 584c 973c 82e7 8cbd a4df 9c3d
00000140: 7e8e d7bd 2ad7 e33d 708f a2bd 602e 113c
00000150: bef2 c9bd f28f b83d 9844 a83c c0f2 afbc
00000160: 1e79 c2bd 3ab2 e73d 34db 41bd 6e40 c33d
00000170: 8066 bb3a d89d f6bd c8f7 99bd 8438 4c3d
00000180: accd 713d d0bc e8bc 789c f23c 52fd aebd
00000190: ae96 af3d 1ceb 843d 06c8 d83d 788a e2bd
000001a0: ac7e c7bd f4d2 4abd 3242 83bd a090 ae3b
000001b0: 5409 3f3d 204d 5b3c 7259 893d d8e8 453d
000001c0: 28de 883d 90b9 b53c 5448 e4bd 6075 3a3d
000001d0: 505a 0ebd 68c1 2bbd acb4 253d 8c27 61bd
000001e0: 24d0 83bd 6085 8a3d d2e5 c5bd 5cb6 92bd
000001f0: 887b c63c 1051 82bc be0b 993d 205b 52bc
00000200: da61 933d 09f8 823b 82eb ee3c 9655 833d
00000210: a9b3 57bd 76ff fdbd 29cf 63bd 9066 013d
00000220: 08bb d83d 009c 683b 3706 fb3d 809a dfbd
00000230: 1deb f3bd 11f5 f3bd bf49 a6bd 1853 103d
00000240: cced 383d 5658 dd3d 2cd8 373d 71e8 ff3d
00000250: d3c1 ce3d 30f7 21bc e432 a23d e1f0 eebd
00000260: ccef df3d 2e51 c8bd 2bd3 6d3d 15d9 99bc
00000270: 1aa8 75bd 586e ed3c f89b abbc 1519 d2bd
00000280: adf1 6eb8 20d7 ddbb c47e 34bd 15af 05bd
00000290: 900f 8bbd d2e6 32bc 7e21 433d 08fb 7ebc
000002a0: 16f4 b1bd c36d 83bc d932 bb3d b856 acbd
000002b0: 9d78 77bc 8b4d c53c 20e1 ac3d a681 93bd
000002c0: 8748 84bc 8257 99bc 991a eebd 34c7 a83d
000002d0: b290 043d b90c a8bd 4509 c1bc 34c1 703d
000002e0: f22d ab3d 2ef3 e1bd f46c 9a3d d1e5 94bd
000002f0: 673a b5bb b088 bb3a 5d78 683d 8998 9abd
00000300: 68c0 9dbd 9d7d 783d 3b18 c63d a89e 6dbd
00000310: 3257 d0bc c44e 513b 127c b33d 8861 be3c
00000320: 8ef5 3fbc ae2f 9a3d 50df b6bd 2acb fbbd
00000330: 44ab f73d b2e0 34bd 2cbf a3bd d600 ea3d
00000340: 00e4 47bd 4487 7a3d 22c7 a1bd d7b1 fabc
00000350: cbd8 efbc 0847 d73d fe03 82bd 85c9 5bbd
00000360: c4ea 1bbd fea6 8dbd 4aeb 25bc fd92 aebd
00000370: 73d5 b4bd d8c7 9e3c 20fc a2bd 533f 213b
00000380: 079f d23d b89d 91bd a05d 383d e45d f13d
00000390: 341e 0a3d 14e0 3b3d 6f67 933d bb5c 573d
000003a0: b860 b9bd fad9 e6bd ec99 a1bc 84b9 bfbd
000003b0: 9ade 963b 8cfe 9f3c e34d e33d 00c2 69bc
000003c0: 56e3 1abd 498f 49bd 109d edbd 8046 f0bc
000003d0: 435e 083d e05e 7abd e33e c13c ec6a 7f3d
000003e0: 691f dc3d 613f 8bbd 964e f43d df5c 4a3b
000003f0: db70 313d 3369 fbbd 636c df3c 2406 d93c
0.08856493 0.07346283 0.04154858 0.115930825 0.07149022 0.0026607108 0.06956455 -0.06031087
0.07549107 -0.026204392 -0.017658636 0.10192579 -0.11074386 0.10063262 -0.04298152 -0.03575404
0.11343469 -0.08534892 0.031435147 -0.10516579 0.08531128 0.0962888 0.10673639 -0.0145678995
-0.08202872 0.04873511 -0.08940094 0.06549221 0.09348869 -0.06694335 -0.04705164 -0.08727884
0.0085834125 0.07885049 0.093596265 -0.0059455354 0.10883145 0.0104514025 -0.1059638 -0.012495301
0.04491681 -0.016110314 0.11510498 0.06536932 -0.008897532 0.08188614 0.013489658 0.055467084
-0.10102296 -0.012009494 -0.030754738 0.03804353 -0.04431944 0.11061757 -0.071052246 0.061910033
0.013914806 -0.055007923 -0.04323962 -0.11750339 0.0025959695 -0.069906935 -0.036905587 0.10909435
-0.10270004 -0.11863698 0.091309115 -0.0052811205 0.105808765 -0.10427262 -0.09662674 -0.1234023
0.060146064 -0.048689783 -0.014229551 -0.07955907 -0.10614374 0.01846902 -0.06880094 0.076598436
-0.10525225 0.11125024 -0.07937515 0.008861154 -0.098607525 0.090118304 0.02054052 -0.021478057
-0.094957575 0.11313291 -0.04732819 0.09533773 0.0014297515 -0.12041825 -0.07517964 0.049858585
0.059034035 -0.028410345 0.029615626 -0.08544411 0.08573662 0.06490156 0.105850264 -0.11061567
-0.097409576 -0.049517587 -0.0640911 0.0053272992 0.046639755 0.013385087 0.067065135 0.04831776
0.06682998 0.02218321 -0.11146608 0.045522094 -0.034754097 -0.041932493 0.040455505 -0.054969355
-0.06436184 0.067637205 -0.09662975 -0.071636885 0.024228826 -0.015907794 0.07472943 -0.012839109
0.07196398 0.0039968533 0.029165033 0.064128086 -0.05266157 -0.12402241 -0.055617485 0.03159195
0.105825484 0.0035493374 0.12257045 -0.109181404 -0.11910079 -0.11911977 -0.08119535 0.035235494
0.045148656 0.10807864 0.044883892 0.124955066 0.10095563 -0.009885594 0.07919863 -0.11667038
0.109344095 -0.09781109 0.058062714 -0.01878027 -0.059974767 0.02898328 -0.020948395 -0.1025869
-5.69687e-05 -0.0067700297 -0.044066206 -0.032637674 -0.06790078 -0.01091929 0.047639363 -0.01556278
-0.08689134 -0.01604355 0.09140558 -0.08414978 -0.01510444 0.024084827 0.08441377 -0.07202463
-0.016147865 -0.018718485 -0.11626167 0.0824112 0.032364555 -0.08205552 -0.02356399 0.058778003
0.08358373 -0.11032711 0.075403124 -0.072703965 -0.0055306437 0.0014307704 0.056755412 -0.07548625
-0.07702714 0.06066667 0.0967259 -0.058012635 -0.025432203 0.0031937817 0.08763899 0.023239866
-0.01171626 0.075286254 -0.08929312 -0.1229461 0.12093213 -0.0441596 -0.079954475 0.11425941
-0.048801422 0.061164156 -0.0789931 -0.030602379 -0.02927818 0.10511595 -0.06348418 -0.05365898
-0.038065687 -0.06916617 -0.010126898 -0.085241295 -0.08829775 0.019382402 -0.07958245 0.0024604395
0.10284238 -0.071101606 0.045011163 0.11785486 0.03372021 0.045867994 0.07197463 0.05257867
-0.09051651 -0.112720445 -0.019726716 -0.09361556 0.004604173 0.019530557 0.1109884 -0.014267445
-0.03781446 -0.049208913 -0.11602223 -0.029330492 0.03329302 -0.061125636 0.023589557 0.062357828
0.107481785 -0.06799198 0.119290516 0.003087811 0.043320518 -0.122759245 0.027273363 0.026492186

fc.2.bias f4 [64]
00000000: 9e78 0a3c 3cc9 2a3d e157 9f3c 75c4 093b
00000010: e372 c8bd e866 fc3c 2de5 1d3d 39f6 7fbd
00000020: 8ad1 8ebd 818e bdbc 2632 bcbc 0877 78bd
00000030: 1074 72bd 75dc b3bc 62a0 e8bd d915 c83d
00000040: 7fb6 d7bb 3123 a63d b016 d93d 95e6 a93d
00000050: 805c a13c 3042 5ebd bc39 42bd 2424 ef3d
00000060: 9cc1 aa3d a698 823d 5e5e 9fbd 4039 cfbc
00000070: 0fcb 223d fcec 153d 151d ca3d ec5e d83d
00000080: a24c e4bd 00ca 003a c258 dabd 79a9 ff3d
00000090: 79d3 9f3d c09e f33c f8a9 813c 2565 eabc
000000a0: 040c 253c e12a 33bd 7fe5 b03d bfd1 093d
000000b0: f4c9 38bd ad4d 82bd e07f b33b b8bb 303d
000000c0: 385d 4b3d 4a2e 9cbd af9f f0bd 000a 633d
000000d0: aa45 933d a876 9ebc 34b8 5b3d 8815 dfbc
000000e0: 6301 44bd de8a af3d 9cc8 d73d 3bdc 823d
000000f0: e69a 95bd 8791 44bd 8b4b 8f3d fcba 083d
0.008451609 0.04169582 0.019451084 0.0021021639 -0.09787538 0.030810788 0.038548637 -0.062490676
-0.0697356 -0.02313924 -0.022973131 -0.060660392 -0.059192717 -0.021955708 -0.113587156 0.09769792
-0.0065830345 0.08112181 0.106000304 0.08295933 0.019697428 -0.05426234 -0.04741834 0.11676815
0.08337709 0.06376772 -0.07781671 -0.025295854 0.039744433 0.03660296 0.09868828 0.1056498
-0.11147429 0.0004912913 -0.106614605 0.12483496 0.07804007 0.029738784 0.015828118 -0.028612683
0.0100736655 -0.043742064 0.08637523 0.033647295 -0.045114473 -0.06362472 0.0054778904 0.043147773
0.049649447 -0.076260164 -0.11749207 0.05542946 0.07191022 -0.01934369 0.053642467 -0.027231947
-0.047852885 0.08571409 0.1053631 0.06389662 -0.07304935 -0.04799035 0.069968306 0.033381447

policy.weight f4 [4, 64]
00000000: 0178 4bbd 0a63 d93d cf43 fd3d 521b 1d3d
00000010: 35d7 d93d d011 5ebc bb90 41bc a393 febd
00000020: c84d ddbd 11ce f5bd 0be7 163d 7033 2dbc
00000030: 4804 8f3d 59b7 973d 569b adbd a26f c73c
00000040: 3d84 e03d 9d87 753d d2c3 bc3d 3a3a 2ebd
00000050: da31 823d 4296 bd3d 5ed6 cdbd ae0a 8abd
00000060: 182c 053b 7491 fcbd 40b2 edbc f8f3 4bbb
00000070: c6f2 793d 728d 7e3d da01 1b3c 34f3 343d
00000080: 2cf3 36bd fa58 debd 2030 d6bd de98 ae3b
00000090: 826d 8ebd ab85 703d 7698 e03d 1314 0c3d
000000a0: a559 b8bd dea4 8bbc 65c1 5b3c 5e68 153d
000000b0: 0041 dcbc 4a06 903d 6cf3 8b3d c5dd eebd
000000c0: e434 afbd 7819 b8bc d181 593c 6862 c8bd
000000d0: 00ce 0ebd ae4d 86bd 42cc f2bd a77d e03c
000000e0: 3066 e03d 64d9 743d 9872 163d 4a58 97bd
000000f0: 4816 dc3d 89c4 10bd 9b23 abbd dcaf f33d
00000100: 45a5 f93d 289c 9e3d e422 aabb e566 903d
00000110: c20c eb3b c0cc b13b 237b d83d 11bd ce3d
00000120: b84b 923c fec6 0d3c fca3 f53d fc3b f43d
00000130: b005 f0bd 3314 4ebd 2009 c33b c3dc 563d
00000140: 3070 993c 44bc fb3d c7c9 893c dca1 a5bd
00000150: b4e2 63bd 253a 533d 50e7 973d 8895 d5bc
00000160: c3a5 99bb 1490 c73d b0db 483d 41f3 e6bd
00000170: 4e60 04bd dcff 0fbd 32f1 aebd 3060 af3d
00000180: 8c46 013d 367d 8cbd c697 4dbd 3c39 c43d
00000190: c4e6 f13b 48ba 353d a15d c53d 6a46 fd3d
000001a0: dd85 e23b 9646 d13d b4c4 d33d a1ec 0e3c
000001b0: 3803 953c 4775 7d3d f045 693d a870 aa3d
000001c0: eca6 d63d 77fd a13d 7fd4 14bd d4aa 143d
000001d0: a049 1c3d a613 8bbd fd98 9fbd e36f debd
000001e0: b0b6 203b f873 fdbc 0086 d63b 3bca 12bb
000001f0: 00c4 59bb e58c 873d 3046 c63d 1064 57bc
00000200: b572 713c b07a e93d 8125 773d a2a0 9a3d
00000210: dfcd dc3d 6851 b63d c28b 8bbd f0e6 47bd
00000220: 7693 bdbd aaf7 b63d fa9e 633d 785b e33d
00000230: 6092 fb3b dbc2 eeba 8cc9 43bd 54bb f03d
00000240: 1ddc ba3d 67d0 cbbd 3de0 dabb 9ae9 b5bd
00000250: 94ec 3dbd 6e20 fe3c e73c 82bd 2a2e fd3d
00000260: 43b1 023d 53be 183d a090 cd3c b99a ecbc
00000270: bb9e 713d 1f5e dc3d bf3e a53d e6c1 d43d
00000280: 7438 2a3d 3875 f9bd cadf 75bb 4f2b c2bd
00000290: b7fb 93bd 47be debd d717 ad3d c1e7 fdbc
000002a0: c69b 60bd 4720 80bd b11a c6bd ca54 01be
000002b0: 38b9 4ebd 5fba e13d 1ced 87bd 32b8 1ebd
000002c0: 845a 58bd 493a f43d fe24 cbbd b80c c8bc
000002d0: 704f ccbd 6eed d1bd 904b f239 2c8a b83d
000002e0: 3489 22bd a826 4fbd 922b b5bd 861c c4bd
000002f0: 4017 dcbb 5d42 76bd f2b0 4cbc c0d0 89bb
00000300: 5838 e03d 60a4 bfbd abdc 163d 6fc9 cc3d
00000310: b84a ddbd 2050 a2bb f733 63bd 9413 30bc
00000320: 00a0 7c3b 3da8 083d a869 debd c00f 37bb
00000330: 5c2a 18bd a1a7 6dbc 0226 9cbd 14d2 52bd
00000340: a4bf 413c 9991 e2bd 1ba0 8f3d 0c9e d2bd
00000350: 0003 2e3a fa6d f1bd d253 0e3d d4e1 1d3d
00000360: b34b 65bd 4728 0b3d beeb f7bd 8a8b f7bd
00000370: fbca 40bb 8fbc 2b3c 8253 9e3d 525f e9bd
00000380: 7aae b13d 4012 13bd 7a1c be3c f2bc 9ebc
00000390: e77d 9b3d 9076 d7bd b044 483d c85a eabd
000003a0: 9c95 dfbd e268 373d 1208 e6bd dd7e 01be
000003b0: 2007 703c 5cfa 8c3c 8805 d5bd f80c 5f3c
000003c0: 2c51 8e3d f567 ec3b 4ebf f23c f471 f93d
000003d0: a84c fabc 3601 9c3d 2d59 57bd e5ea ffbd
000003e0: f467 123d 1025 d0bd b06d b53d 0d58 51bd
000003f0: e0a4 aebd cad4 afbd 7ca0 dabd b04f 103d
-0.04967499 0.10614593 0.12366449 0.038356133 0.106367506 -0.0135540515 -0.011814292 -0.12430503
-0.10805851 -0.12002195 0.036841433 -0.010571346 0.069832385 0.07408018 -0.084768936 0.024345223
0.109627225 0.059943784 0.09217037 -0.042535998 0.06357165 0.09257175 -0.10050653 -0.06740318
0.0020320471 -0.123324305 -0.02901566 -0.0031120759 0.061022542 0.06214661 0.009460891 0.04417725
-0.0446655 -0.10856815 -0.10458398 0.005328282 -0.06954481 0.058721226 0.109665796 0.03419883
-0.09001473 -0.017046388 0.013412808 0.036476485 -0.026886463 0.070324495 0.068335384 -0.11663393
-0.0855501 -0.022473082 0.01327558 -0.097843945 -0.034864426 -0.06557785 -0.11855365 0.027403666
0.10956991 0.059777632 0.03673038 -0.07389887 0.10746437 -0.03534368 -0.083564006 0.11898777
0.12189726 0.07744628 -0.0051921476 0.070508756 0.0071731517 0.0054260194 0.105703615 0.10094655
0.017858371 0.0086534005 0.11994168 0.119255036 -0.11719835 -0.050312232 0.0059520155 0.05245663
0.018730253 0.12291768 0.016819848 -0.08087513 -0.055636123 0.051569123 0.07417166 -0.026072279
-0.00468895 0.097442776 0.049037635 -0.11276866 -0.032318406 -0.035156116 -0.08542098 0.08563268
0.03156142 -0.068598196 -0.05019357 0.09581229 0.0073822457 0.044367105 0.09636999 0.12366946
0.0069129304 0.10218541 0.103402525 0.008723409 0.018190011 0.061879423 0.056951463 0.08322269
0.104810566 0.07909673 -0.036335465 0.036295727 0.03815615 -0.06790857 -0.07792852 -0.108611844
0.0024522953 -0.030939087 0.0065467358 -0.002239837 -0.0033228397 0.066186704 0.09681356 -0.013146415
0.014736821 0.11400354 0.0603385 0.075501695 0.10781454 0.08902246 -0.06813766 -0.048804224
-0.092566416 0.08933957 0.055571534 0.11101431 0.0076773614 -0.001821603 -0.047799632 0.1175448
0.091240145 -0.09951859 -0.0066795633 -0.088824466 -0.046368197 0.031021323 -0.063592725 0.12362321
0.03190733 0.037290882 0.025093377 -0.028882371 0.058989268 0.1076014 0.080686085 0.10388546
0.041557744 -0.12180561 -0.0037517422 -0.09480917 -0.07225745 -0.10876136 0.08451813 -0.030994298
-0.054836057 -0.062561564 -0.0967306 -0.1263 -0.050469607 0.110218756 -0.06637022 -0.03874988
-0.052820697 0.119251795 -0.09919165 -0.024420127 -0.09976089 -0.10250364 0.00046214135 0.09010729
-0.03968163 -0.050573975 -0.08846201 -0.09575753 -0.006716639 -0.060121883 -0.012493359 -0.004205793
0.10948247 -0.09357524 0.03683154 0.09999358 -0.10805267 -0.0049533993 -0.05546948 -0.010746855
0.0038547516 0.03336357 -0.10859996 -0.0027932972 -0.037149772 -0.014505298 -0.07624437 -0.051469877
0.011825476 -0.11062927 0.070129596 -0.10284051 0.000663802 -0.117885545 0.034747906 0.038545445
-0.055980396 0.03397396 -0.12105511 -0.12087162 -0.002941786 0.010481968 0.077307716 -0.11395134
0.08675857 -0.035906076 0.023206938 -0.019377206 0.07592373 -0.10520661 0.04889363 -0.114430964
-0.109172076 0.04477776 -0.11232008 -0.12646051 0.014650136 0.017209224 -0.104014456 0.013613932
0.06949076 0.007214541 0.029632237 0.12179938 -0.03055413 0.076174185 -0.05257528 -0.124959745
0.03574367 -0.10163319 0.08858812 -0.051109362 -0.08527541 -0.08585508 -0.10675141 0.035232246

policy.bias f4 [4]
00000000: 834b 84bd a25d 3fbd 6996 313d b634 a33d
-0.06459715 -0.046720155 0.043356333 0.07969038

value.weight f4 [1, 64]
00000000: 00d3 373d 468d c03d b12a d6bb 122e 9ebc
00000010: 62d2 ed3d 8468 783d a30b 0cbd 62a8 833d
00000020: c4b7 17bd 5c32 abbd af6d 983d 3c0b e2bd
00000030: f858 ad3c 7245 2d3d 0e1a 89bd 0c81 48bd
00000040: 62db 693d d738 0c3d 125e ca3d 15b2 e3bd
00000050: 4049 2ebd cb78 553d 2db3 bb3d 82a3 83bd
00000060: 5e44 51bd 05b9 c73d ecab 8f3d 174c dfbd
00000070: 7afb e9bd a8d0 d23d 29da 24bd 24c6 193d
00000080: 003c e1b9 ea79 dcbd cc3d 03bc 2a72 ccbd
00000090: 8d1a d3bd f3aa d73d 2915 62bd 586b 103c
000000a0: 4b94 aa3d 22ef f13d 716a 03bc 1802 d1bd
000000b0: 0ca3 0cbd 8688 dc3d 7a24 e0bd b994 80bd
000000c0: 8a3d ff3d cca2 163c c973 fc3c 2c3b 7fbd
000000d0: 1ab1 a63d 14eb 413d 1f18 5f3d 5283 f33d
000000e0: 7e5b 34bd e8d4 b2bc 8abb e3bd b697 403d
000000f0: 5010 233c 23be ca3d f24c f43c 742a 143d
0.04487896 0.09401946 -0.006535851 -0.019309077 0.11612393 0.06064655 -0.034190785 0.06428601
-0.037040487 -0.08359215 0.074427955 -0.11037299 0.021160588 0.042302556 -0.06694423 -0.048951194
0.057093985 0.034233894 0.09881224 -0.11117951 -0.042550325 0.05211715 0.091650344 -0.06427671
-0.05109059 0.097520865 0.07015213 -0.10903185 -0.114249185 0.10293704 -0.040247116 0.037542477
-0.00042960048 -0.10765441 -0.008010339 -0.099827126 -0.103077985 0.10530653 -0.05519596 0.008814655
0.08329066 0.11813189 -0.008020983 -0.102054775 -0.03433518 0.10768227 -0.10944457 -0.062783666
0.124629095 0.009194087 0.03081693 -0.06231229 0.08139248 0.04734333 0.054466363 0.11890282
-0.044032566 -0.021830037 -0.111197546 0.047019683 0.00995262 0.09899547 0.029821847 0.0361733

raise_mean.weight f4 [1, 64]
00000000: 3c7a e9bd 2074 143c 40a9 763c cee2 bbbd
00000010: 9cd9 863d 403b 98bc c82a c93c 2011 bebb
00000020: 0828 cfbd e0d8 0ebd 22f7 ee3d 8024 ca3d
00000030: 042c 11bd 28dc 233d a443 bfbd 8020 653d
00000040: 289e ba3c 201e b43d 0889 2d3d 1803 893c
00000050: 2ce8 743d 30c2 8abd c6af b53d 20d4 e13c
00000060: 0655 f2bd b069 a13c 688d 533d ac92 953d
00000070: 3e91 fbbd 2c46 2dbd 9072 c9bc f893 61bd
00000080: a4e1 0e3d 1cd0 ebbd 3c28 d6bd 7027 89bc
00000090: b0a5 113c 96e0 ed3d 3c11 213d b088 de3d
000000a0: 86fd e93d a84d 893d 1c97 55bd 3026 e53d
000000b0: a0d4 f13d 30f5 7f3d fcf2 9f3d 40f8 69bd
000000c0: 44e8 143d 245c 583d 7e83 fc3d 6ca9 7c3d
000000d0: e419 e23d 006a 8bbb a214 d63d 004f d0bc
000000e0: 60f3 00bd a0ad e3bc f0be 1a3c e0c7 3f3d
000000f0: 0461 3cbd b2b8 85bd 5e31 f93d e005 d43b
-0.114002675 0.0090608895 0.015055001 -0.09174119 0.065844744 -0.01858294 0.024556533 -0.0058003813
-0.10115057 -0.034874797 0.116682306 0.09870243 -0.035442367 0.04000488 -0.09339073 0.055939198
0.022780493 0.087948084 0.04236701 0.016725108 0.05979173 -0.067753196 0.08871417 0.02756697
-0.11832623 0.019703716 0.051648527 0.07303366 -0.12283562 -0.04230325 -0.02459076 -0.055072755
0.034883156 -0.11514303 -0.10456893 -0.016742438 0.008889601 0.11615102 0.039323077 0.10865915
0.11425309 0.06704265 -0.052146062 0.11188924 0.11808133 0.06248969 0.078100175 -0.057121515
0.03635432 0.052822247 0.12329768 0.06168501 0.110400945 -0.0042545795 0.10453154 -0.025428295
-0.0314821 -0.027792752 0.009444937 0.046821475 -0.04599096 -0.065293685 0.12167619 0.006470427
